model/outputs/model_3.pth (torch, 451894 bytes, 24 tensors)

layer1.weight f4 [32, 784]
0	0xbc0c1400	-0.00854969
1	0xbce5673d	-0.02800333
2	0xbd71d72b	-0.05904309
3	0xbd4a79e0	-0.049432635
4	0xbc627d8c	-0.013823878
5	0xbce5f83a	-0.028072465
6	0xbb6c1688	-0.0036024172
7	0xbcd24cd0	-0.025671393
8	0xbd01de64	-0.03170623
9	0xbd82b6da	-0.063825324
10	0xbd0b1566	-0.033955954
11	0xbc1a6588	-0.009423621
12	0xbd1dfa42	-0.038568743
13	0xbd91f551	-0.071268685
14	0xbcb80af3	-0.022466158
15	0xbd31c435	-0.04340001
16	0xbcf16c24	-0.02947051
17	0xbccd0bd3	-0.025030052
18	0xbd727d22	-0.059201367
19	0xbd013940	-0.03154874
20	0xbc5c3583	-0.013440493
21	0xbd57e5f2	-0.052709527
22	0xbc05e1bc	-0.008171495
23	0xbd19ecae	-0.03757923
24	0xbcbad4b7	-0.022806508
25	0xbd869599	-0.06571502
26	0xbc9d2f59	-0.019187616
27	0xbd6682b2	-0.056276985
28	0xbd4a3822	-0.04936994
29	0xbd229bc6	-0.03969934
30	0xbd3093bd	-0.043109644
31	0xbc4da6fe	-0.012552021
32	0xbc1156b8	-0.008870773
33	0xbc2c6aa6	-0.010523474
34	0xbd4f6e71	-0.050642435
35	0xbd928a19	-0.07155246
36	0xbc743a40	-0.014906466
37	0xbd05900a	-0.03260807
38	0xbd7dfa4f	-0.06200629
39	0x3af5d0d9	0.0018754258
40	0xbcca30bb	-0.02468144
41	0xbd82aaab	-0.063802086
42	0xbd155968	-0.036462218
43	0xbd2067fe	-0.039161675
44	0xbd20e0ea	-0.039276995
45	0xbd21b47c	-0.039478764
46	0xbd405e0f	-0.0469647
47	0xbd474108	-0.048646003
48	0xbd90fb9f	-0.07079243
49	0xbd94b795	-0.07261578
50	0xbd91c9d1	-0.071185715
51	0xbd083034	-0.033249095
52	0xbcbf4e0b	-0.023352643
53	0xbc7ff128	-0.015621461
54	0xbd0017f6	-0.03127285
55	0xbb54eb39	-0.0032488836
56	0xbc252d1c	-0.010081556
57	0xbd6e4ac9	-0.05817679
58	0xbcc87f27	-0.024474693
59	0xbd355027	-0.044265892
60	0xbd8e2806	-0.069412276
61	0xbba443ff	-0.0050129886
62	0xbd2bdc28	-0.041958004
63	0xbd33de4b	-0.043913167
64	0xbc4292b5	-0.011875798
65	0x3db24b93	0.08705821
66	0x3bc3c5ed	0.0059745223
67	0x3d1ff1f6	0.03904911
68	0x3df2f6cd	0.1186348
69	0x3db3d3e3	0.087806486
70	0x3d435cc9	0.04769591
71	0xbda2d209	-0.07950217
72	0xbdd7f4c8	-0.10544735
73	0xbdf91947	-0.121630244
74	0xbd80a99b	-0.0628235
75	0xbd765fb4	-0.060149863
76	0xbd18aa3e	-0.03727173
77	0xbd381de3	-0.044950377
78	0xbc4197cc	-0.011815976
79	0xbd0eff02	-0.034911163
80	0xbcb60bbf	-0.022222398
81	0xbd732fd3	-0.05937178
82	0xbd1f4da8	-0.03889242
83	0xba819d6e	-0.0009888837
84	0xbd46eab0	-0.04856366
85	0xbbe05f55	-0.006847302
86	0xbcc9d72f	-0.02463874
87	0xbd8051c5	-0.06265596
88	0xbcc4efaf	-0.024040071
89	0xbd16b856	-0.03679689
90	0x3c162907	0.009165055
91	0x3bb44ec7	0.005502555
92	0x3df24cc7	0.1183105
93	0x3dd3df81	0.10345364
94	0x3d92fc00	0.071769714
95	0x3e2b5fca	0.1673576
96	0x3ddca65a	0.107739165
97	0xbe4079c7	-0.18796454
98	0xbe430c75	-0.1904772
99	0xbe5762c7	-0.21033774
100	0xbeba0522	-0.3633204
101	0xbec40d69	-0.3829148
102	0xbe088db2	-0.13335302
103	0xbd68e045	-0.056854505
104	0xbd87a4c4	-0.066232234
105	0x3ca41434	0.020029165
106	0x3c0d731a	0.008633399
107	0xbc9306ab	-0.017947515
108	0xbd33b065	-0.043869395
109	0xbc361587	-0.011113531
110	0xbd728168	-0.059205443
111	0xbcfacb43	-0.0306145
112	0xbc68da22	-0.014212163
113	0xbd050a4e	-0.03248053
114	0xbd57d642	-0.052694567
115	0xbd15de16	-0.03658875
116	0xbc7813d1	-0.015141443
117	0x3d1a9971	0.03774399
118	0xbc0f6255	-0.0087514715
119	0x3c98e168	0.01866217
120	0xbd9f26f3	-0.07771101
121	0x3c5bbbe6	0.013411498
122	0xbde2e5d7	-0.11078995
123	0x3d917723	0.07102802
124	0x3cc81138	0.024422273
125	0xbe05d78b	-0.13070504
126	0xbe90b610	-0.28263903
127	0xbe5da61f	-0.21645401
128	0xbe9fe90c	-0.31232488
129	0xbf1be092	-0.6088954
130	0xbf2664e0	-0.64997673
131	0xbe916959	-0.28400686
132	0xbe35d4fc	-0.17757028
133	0xbd5457d6	-0.05184158
134	0xbdc2c32a	-0.09509881
135	0x3dc1d436	0.09464304
136	0x3dddf56d	0.10837827
137	0x3c6358c5	0.013876145
138	0xbd64b2af	-0.05583447
139	0xbd24bc38	-0.040218562
140	0xbc441dfc	-0.011970039
141	0xbd101108	-0.035172492
142	0xbd679ca6	-0.056545876
143	0xbd8abbb6	-0.06774084
144	0xbd914eb7	-0.07095092
145	0x3a899995	0.0010498042
146	0xbe95ab06	-0.29232043
147	0xbdcdd31e	-0.10050033
148	0xbe3dfd0a	-0.18553558
149	0x3dada217	0.08478182
150	0xbe2719ba	-0.16318408
151	0xbd523e27	-0.051328804
152	0xbe2fff0f	-0.17187141
153	0xbe888164	-0.26661217
154	0xbe6c8ef4	-0.23101407
155	0xbe376b59	-0.17912044
156	0xbdfa7578	-0.12229437
157	0xbcd49601	-0.025950434
158	0xbe0a0720	-0.1347928
159	0xbe222781	-0.15835382
160	0x3d6b0c35	0.05738469
161	0x3d93fe23	0.07226207
162	0xbd074e88	-0.033033878
163	0x3e393367	0.18086015
164	0x3e53ba6c	0.20676583
165	0x3d23b098	0.039963335
166	0xbd439091	-0.04774529
167	0xbd96cff2	-0.07363881
168	0xbd932659	-0.071850486
169	0xbc24fb3c	-0.010069665
170	0xbd844fa4	-0.06460503
171	0xbda61118	-0.08108729
172	0xbddeed0f	-0.10885059
173	0xbdeaca3c	-0.114643544
174	0xbe1c1c3e	-0.15245149
175	0xbd507e2a	-0.05090157
176	0xbd2cdf59	-0.04220519
177	0x3e2b1861	0.16708519
178	0x3d414619	0.04718599
179	0x3d980542	0.07422878
180	0x3c5fb0b1	0.013652966
181	0xbe1abd7e	-0.15111348
182	0xbea284e9	-0.31742027
183	0xbe923320	-0.2855463
184	0xbe136445	-0.14393719
185	0x3de5499a	0.11195679
186	0xbb5f7aeb	-0.0034100364
187	0x3da6f073	0.08151331
188	0x3e0607c2	0.13088897
189	0x3e7a77b2	0.24459723
190	0x3e3e0588	0.18556798
191	0x3e9d6757	0.30742905
192	0x3ec4ba75	0.38423505
193	0x3e1d9f01	0.15392686
194	0xbbc396ed	-0.0059689195
195	0xbc4924a4	-0.012276802
196	0xbc8e7e9b	-0.017394355
197	0xbd352d3b	-0.04423259
198	0xbd84b0e6	-0.06479053
199	0xbd190cb5	-0.037365634
200	0xbdc38b67	-0.09548073
201	0xbc176a87	-0.009241707
202	0xbe713255	-0.23554356
203	0x3e8f97b3	0.28045425
204	0x3e9f39c5	0.31098762
205	0x3eca0170	0.39454222
206	0x3db9f628	0.09080154
207	0xbc4ef495	-0.012631555
208	0xbe8a9db7	-0.27073452
209	0xbf0d4b68	-0.55193186
210	0xbf1b304a	-0.6062056
211	0xbe6816ec	-0.22664994
212	0x3d8b5138	0.068026006
213	0x3e053745	0.13009365
214	0xbccd6022	-0.025070254
215	0xbe01d012	-0.12677029
216	0xbde97d23	-0.11400821
217	0x3e2e055c	0.16994232
218	0x3e3e3968	0.18576586
219	0x3ec270be	0.3797664
220	0x3eeae8c7	0.4588072
221	0x3e7e1e6d	0.24816294
222	0x3d0fed13	0.0351382
223	0xbd34c0a9	-0.044129048
224	0xbd6a405b	-0.05719028
225	0xbca9ff7b	-0.020751705
226	0xbd6c83b3	-0.057742786
227	0x3cf22b2d	0.029561603
228	0xbe07fab9	-0.13279237
229	0x3e1a7de2	0.15087083
230	0xbd9b2455	-0.07575289
231	0x3e788062	0.24267724
232	0x3ee903fb	0.4551085
233	0x3ef1db5c	0.4723767
234	0x3e6378f1	0.22214104
235	0xbd2aac1d	-0.041668046
236	0xbf26d245	-0.65164596
237	0xbf5938d6	-0.8485235
238	0xbf3c6e00	-0.73605347
239	0xbec630d3	-0.38709125
240	0xbc3892a5	-0.0112654315
241	0x3d68891d	0.056771386
242	0xbe7eb6b0	-0.24874377
243	0xbd934a5c	-0.07191917
244	0xbda8216f	-0.08209502
245	0x3e9a7dca	0.30174094
246	0x3e300c0d	0.17192097
247	0x3e9e50c9	0.3092101
248	0x3e97a8b7	0.29620907
249	0x3e133b7e	0.14378163
250	0xbd092620	-0.033483624
251	0xbcd1e250	-0.02562061
252	0xbd70c732	-0.058783717
253	0x3cde5c4d	0.027143622
254	0x3d28bca8	0.04119554
255	0xbd2f2078	-0.042755574

layer1.bias f4 [32]
0	0x3d04a316	0.032382093
1	0xbd536000	-0.051605225
2	0x3d32cd34	0.04365273
3	0xbd91d9c6	-0.07121615
4	0xbd648fe5	-0.05580129
5	0xbd3fda81	-0.04683924
6	0x3ca2d5f5	0.019877413
7	0xbb2b0bb0	-0.0026099496
8	0xbd5babe2	-0.053630717
9	0x3da545c1	0.08069945
10	0xbcfcc663	-0.030856317
11	0x3c63aac5	0.013895695
12	0xbda93ef7	-0.08263963
13	0xbd68f372	-0.056872793
14	0xbd803d00	-0.06261635
15	0x3c1e8285	0.009674673
16	0xbc7e0982	-0.0155051965
17	0xbce6663b	-0.02812492
18	0xbd196d4d	-0.037457753
19	0xbc5ef743	-0.0136087565
20	0xbc93368e	-0.01797035
21	0xbc6c8215	-0.014435311
22	0xbbee1cc3	-0.0072666123
23	0xbc76d054	-0.015064318
24	0xbd90078a	-0.07032688
25	0xbccfa830	-0.025348753
26	0x3d7a0160	0.061036468
27	0xbd008e02	-0.03138543
28	0xbc508660	-0.01272735
29	0x3d52866d	0.05139773
30	0xbc58cf05	-0.013232951
31	0x3df840e5	0.12121753

layer2.weight f4 [64, 32]
0	0xbe4d1ac4	-0.20029742
1	0xbc15d903	-0.009145978
2	0xbe6e7810	-0.23287988
3	0x3dcbb483	0.09946539
4	0xbe9fbac1	-0.3119717
5	0xbd5a76b0	-0.053335845
6	0xbcbfecae	-0.023428287
7	0xbdd6ad08	-0.10482222
8	0x3d850331	0.06494749
9	0x3e858d27	0.26084253
10	0x3db1e00a	0.0868531
11	0xbcc0f098	-0.023552224
12	0x3e3a0c08	0.18168652
13	0x3ece3a41	0.4027882
14	0xbde37b26	-0.11107473
15	0x3e05fbd0	0.1308434
16	0x3dd42be7	0.10359936
17	0xbe055383	-0.13020138
18	0xbe05a2ee	-0.13050434
19	0xbe2f242c	-0.17103642
20	0xbc9a41c6	-0.018830191
21	0x3e0eff04	0.13964468
22	0x3d97d804	0.074142486
23	0x3ec2f328	0.38076138
24	0xbe831bb8	-0.25607085
25	0x3ef6120b	0.4806064
26	0xbf2876c4	-0.6580622
27	0xbdbce5f8	-0.092235506
28	0x3eb7c34a	0.3589118
29	0xbe23e4ac	-0.160052
30	0xbe15cebf	-0.14629649
31	0xbe56b2f5	-0.20966704
32	0x3ea79f5b	0.32738766
33	0xbf57b1ed	-0.8425587
34	0xbddcf066	-0.1078804
35	0xbf19bd92	-0.60054886
36	0x3d3075d1	0.04308111
37	0x3e4fa1b1	0.20276524
38	0xbd1dc7e2	-0.0385207
39	0xbf054056	-0.52051294
40	0xbea6f851	-0.32611325
41	0x3e939719	0.28826216
42	0xb90fcd71	-0.00013714076
43	0xbe96b08b	-0.29431567
44	0xbeca8940	-0.39557838
45	0xbea54fdf	-0.322875
46	0x3d6e0ddf	0.058118697
47	0xbe112cad	-0.14177199
48	0xbf2feca7	-0.6872048
49	0xbe1b477f	-0.15163992
50	0x3e02fcfe	0.12791821
51	0x3e8ae35f	0.27126595
52	0x3ed20b03	0.41024026
53	0x3e507a6c	0.203592
54	0x3d9369c8	0.071979105
55	0x3d1023b7	0.03519031
56	0x3d6bda01	0.05758095
57	0xbea8fe70	-0.3300662
58	0x3e41e32c	0.18934315
59	0xbe283259	-0.16425456
60	0x3c0700cb	0.008239935
61	0x3e953dff	0.29148862
62	0x3c90ac98	0.017660424
63	0x3e5848c2	0.21121505
64	0xbd699a3a	-0.057031848
65	0xbf02d60a	-0.5110785
66	0x3d198c16	0.037487112
67	0xbed27b39	-0.41109636
68	0xbeabcfe3	-0.33557042
69	0x3dbd4c08	0.092430174
70	0xbdccdfce	-0.10003625
71	0x3eb76a64	0.35823357
72	0xbdd5f3dd	-0.10446904
73	0x3e8a36e0	0.2699499
74	0xbcc158dc	-0.023601942
75	0x3d2a5b55	0.041591007
76	0x3f0c979f	0.54918855
77	0xbdf9ab43	-0.12190869
78	0xbe12ac72	-0.14323595
79	0xbd8fab87	-0.07015138
80	0xbe89b906	-0.26898974
81	0x3eb07618	0.34465098
82	0xbe1d9625	-0.15389307
83	0xbe6a768b	-0.22896783
84	0xbe211138	-0.15729225
85	0xbd99704f	-0.07492124
86	0x3ce32721	0.027728619
87	0xbee38802	-0.44439703
88	0x3e1c21cf	0.15247272
89	0xbf1b6324	-0.6069815
90	0x3ea5989d	0.32342997
91	0xbe2f5dd8	-0.17125642
92	0xbded2927	-0.11580115
93	0xbf26b5a7	-0.6512093
94	0x3d9101a4	0.07080391
95	0xbed7d29d	-0.42152873
96	0xbe83b5ae	-0.25724548
97	0xbe1179e8	-0.1420666
98	0xbf05e544	-0.52302957
99	0xbee56881	-0.44806293
100	0x3ef6dd6e	0.48215812
101	0x3d48a0b1	0.048981372
102	0x3a99ba65	0.0011728524
103	0x3e5bd9f2	0.21469858
104	0xba5b2743	-0.00083600375
105	0xbe9311cb	-0.28724512
106	0x3e2cae5a	0.16863385
107	0x3eb463b1	0.35232309
108	0x3b75f138	0.003752781
109	0xbed4a9ad	-0.41535702
110	0xbed9eb94	-0.42562544
111	0x3d30e772	0.043189473
112	0xbd287281	-0.041124824
113	0xbdcf6362	-0.10126378
114	0x3da4d0d8	0.08047646
115	0xbf77d7a9	-0.96813446
116	0xbe96de1d	-0.29466334
117	0x3e1cc445	0.15309246
118	0x3d2f3144	0.042771593
119	0xbb8ff794	-0.0043935273
120	0x3e3449fe	0.17606351
121	0x3f290cc2	0.6603509
122	0x3b0fb0f1	0.0021925534
123	0x3e0885c3	0.13332276
124	0xbea386d0	-0.3193879
125	0xbe06a0c2	-0.13147262
126	0xbd4dfd68	-0.050290495
127	0xbe6e468e	-0.23269102
128	0x3e36b3b8	0.17841995
129	0xbea219f9	-0.3166044
130	0xbe3ea25d	-0.18616624
131	0xbdd9a9bd	-0.10628078
132	0x3dd0120d	0.10159693
133	0x3db20992	0.08693232
134	0x3db54eb4	0.08852902
135	0xbe4c33bf	-0.19941615
136	0x3e84fc40	0.259737
137	0x3c2d1697	0.010564468
138	0xbde865f4	-0.11347571
139	0xbe2aec95	-0.16691811
140	0x3ee1a8b8	0.44074035
141	0xbe316bd9	-0.17326297
142	0xbe801456	-0.25015515
143	0xbdae98cb	-0.08525237
144	0xbf170b11	-0.5900126
145	0xbea83917	-0.32856056
146	0xbe301151	-0.17194106
147	0xbf1bc52b	-0.6084773
148	0x3ea65abb	0.32491097
149	0x3dc170e3	0.094453596
150	0xbb4170ba	-0.0029516653
151	0x3ea6f744	0.32610524
152	0xbed795ad	-0.4210638
153	0xbe24c427	-0.16090451
154	0xbf507d90	-0.81441593
155	0x3e107bfe	0.141098
156	0x3e87fe83	0.26561365
157	0x3e429509	0.19002165
158	0x3de7477f	0.11292934
159	0x3e47cd00	0.19511795
160	0xbe7e391b	-0.24826472
161	0xbea25095	-0.31702104
162	0xbca45f73	-0.020065045
163	0x3e29cff3	0.16583233
164	0xbf177755	-0.5916646
165	0x3e027b3d	0.12742324
166	0x3d30ba64	0.043146506
167	0xbd2b2090	-0.0417791
168	0xbdd0f9e4	-0.10203913
169	0xbeee63b0	-0.4656043
170	0xbe25ac8a	-0.161791
171	0x3e57fe8e	0.21093199
172	0x3d2e7dff	0.042600628
173	0xbce687f4	-0.028141
174	0x3e2e6de8	0.17034113
175	0xbc42920e	-0.011875642
176	0xbe044ecc	-0.12920684
177	0x3e8e8608	0.27836633
178	0xbd27274c	-0.04080896
179	0x3e87d894	0.26532423
180	0x3d5490f1	0.05189604
181	0x3be65557	0.0070292163
182	0xbdf5193b	-0.11967703
183	0xbe84f418	-0.2596748
184	0x3f3690df	0.71314806
185	0xbeffe8cb	-0.49982294
186	0xbd0a5c16	-0.033779226
187	0xbdbf5f5f	-0.093443625
188	0x3c3f76dd	0.011686054
189	0xbe594a92	-0.21219853
190	0xbd730796	-0.059333406
191	0xbdd5aaf4	-0.10432997
192	0xbeaeb071	-0.3411899
193	0xbed38bb0	-0.4131751
194	0x3de419da	0.11137743
195	0xbf4531fe	-0.7702941
196	0xbe4c0abe	-0.19925973
197	0x3de18050	0.11010802
198	0x3e0ea879	0.13931455
199	0x3e7dca85	0.24784286
200	0xbcff5204	-0.031167038
201	0xbe944ad4	-0.2896334
202	0x3dffc51f	0.1248877
203	0xbdb4797c	-0.08812234
204	0xbe2b9284	-0.1675511
205	0xbebf5030	-0.37365866
206	0x3deb29bc	0.114825696
207	0xbe0d976e	-0.13827297
208	0xbd2b386d	-0.04180186
209	0xbe9fa328	-0.31179166
210	0x3e0d6761	0.13808967
211	0xbf085b78	-0.5326457
212	0xbe6bce53	-0.23027925
213	0xbecd12cc	-0.40053403
214	0xbe1c0f0e	-0.15240118
215	0x3df1e4ff	0.11811256
216	0x3e244a11	0.16043879
217	0xbc01ca06	-0.007921701
218	0xbeaf78e8	-0.34271932
219	0x3e14eeed	0.14544268
220	0x3e7f80d8	0.24951494
221	0xbda5d9b4	-0.08098164
222	0xbd8f4cf7	-0.06997102
223	0x3d090d96	0.033460222
224	0xbe8f079c	-0.27935493
225	0xbd2a63c8	-0.041599065
226	0xbde71dd4	-0.11284986
227	0xbe815d9a	-0.25266725
228	0xbe75c3d1	-0.2400048
229	0xbd79f668	-0.061026007
230	0xbda5cedf	-0.08096098
231	0xbe69fe53	-0.22850923
232	0xbdf13cd1	-0.11779178
233	0x3e82f4db	0.25577435
234	0xbe05c5a5	-0.13063677
235	0x3ee8ca24	0.4546672
236	0xbdcb1e6d	-0.09917913
237	0x3e9017b5	0.28143087
238	0xbed5b137	-0.41736767
239	0xbd35c219	-0.04437456
240	0x3f1331d1	0.5749789
241	0x3e8aa6dc	0.2708043
242	0xbc98cbb6	-0.018651824
243	0x3d98909e	0.074494585
244	0xbe1f0830	-0.15530467
245	0x3eda1315	0.42592683
246	0xbd83eb60	-0.064413786
247	0x3ec7561a	0.38932878
248	0x3f0a0042	0.53906643
249	0x3f1417cb	0.57848805
250	0x3ea09b98	0.3136871
251	0xbdf942e9	-0.12170965
252	0xbdb44d8c	-0.088038534
253	0x3eaa8f9f	0.333127
254	0x3d2b69e7	0.041849043
255	0xbe899806	-0.26873797

layer2.bias f4 [64]
0	0xbd57f549	-0.052724157
1	0x3e6e0607	0.23244487
2	0xbe59b32b	-0.21259753
3	0x3d475f7e	0.048675053
4	0x3ed94ee2	0.42442995
5	0xbdd13ea4	-0.10217026
6	0xbe171736	-0.14754948
7	0xbdfa2f6f	-0.122160785
8	0xbe81c92a	-0.25348788
9	0x3f1fb0f8	0.6237941
10	0x3e254b00	0.16141891
11	0xbd9b1d9c	-0.07574007
12	0x3df9f5e6	0.122051045
13	0xbcb3af46	-0.021934163
14	0x3d27f611	0.04100615
15	0x3cb6818a	0.022278566
16	0xbe1996e8	-0.14998972
17	0xbe081d62	-0.13292459
18	0xbe72a344	-0.23695093
19	0xbea8f719	-0.3300102
20	0x3c7519e6	0.014959788
21	0x3e062255	0.13099034
22	0xbeaafc18	-0.33395457
23	0x3eb15437	0.34634563
24	0xbe5bfe0b	-0.21483628
25	0x3eac1e1c	0.33616722
26	0x3c9a2631	0.01881704
27	0xbe02ff57	-0.12792717
28	0x3d2b571d	0.041831125
29	0xbdb1d1d6	-0.08682601
30	0x3e9cb96e	0.30610222
31	0xbe01b2e2	-0.12665895
32	0xbe911a64	-0.28340447
33	0x3dfff854	0.12498537
34	0xbe265616	-0.16243777
35	0xbe4847f2	-0.19558695
36	0xbd5f69c2	-0.054544218
37	0xbc65d8d1	-0.014028744
38	0x3e2f5b16	0.1712459
39	0xbdd33855	-0.10313479
40	0xbd81d291	-0.063389905
41	0xbde76bcf	-0.1129986
42	0xbd2e64f0	-0.04257673
43	0xbb85b3ca	-0.0040802704
44	0xbc8e04b4	-0.017336227
45	0xbe7f63d2	-0.24940422
46	0xbed58ab2	-0.4170738
47	0xbe21edba	-0.15813342
48	0xbe718e15	-0.23589356
49	0x3f0d12ec	0.55107
50	0x3cf70a5a	0.030156303
51	0x3ddb0d35	0.106958784
52	0xbe0b8ca8	-0.13627875
53	0x3c0e5299	0.008686685
54	0xbe70f83a	-0.23532191
55	0xbedb8514	-0.42874968
56	0xbed83683	-0.4222909
57	0xbdd34c1f	-0.10317253
58	0xbc712551	-0.01471837
59	0xbea2d1d8	-0.31800723
60	0x3d3d2549	0.046178136
61	0xbe0c6c70	-0.1371324
62	0xbd051e38	-0.032499522
63	0xbee3bae4	-0.44478524

layer3.weight f4 [128, 64]
0	0x3f10c129	0.5654474
1	0xbc1ca03c	-0.009559687
2	0xbe02fbe3	-0.127914
3	0xbec91563	-0.3927413
4	0x3e53fea5	0.20702608
5	0xbe9ed2fd	-0.31020346
6	0x3e592668	0.21206057
7	0x3edcfe22	0.43162638
8	0xbeba559f	-0.3639345
9	0x3ec01c2f	0.37521502
10	0xbf263f3c	-0.6494024
11	0x3e51b40d	0.2047884
12	0x3da06773	0.078322314
13	0x3d745aab	0.05965678
14	0x3e1c221a	0.15247384
15	0xbef09bfb	-0.46994004
16	0xbe9cb56a	-0.30607158
17	0xbf5473ac	-0.82989
18	0xbeb6cc90	-0.35702944
19	0x3e80c9a4	0.2515384
20	0xbe033299	-0.1281227
21	0xbdb262cd	-0.08710251
22	0xbd3f1ebf	-0.04666018
23	0x3e62d091	0.22149874
24	0xbdf2a8a7	-0.11848574
25	0xbe84f46f	-0.25967738
26	0xbf24bda4	-0.6435187
27	0x3e0fca28	0.1404196
28	0x3e4da2d1	0.20081641
29	0x3c892996	0.016743463
30	0x3e74a2e0	0.23890257
31	0xbd7baad0	-0.061442196
32	0xbf04b76d	-0.51842386
33	0xbf08e533	-0.5347473
34	0xbe3a53e2	-0.18196061
35	0xbd821743	-0.06352093
36	0xbe9b77be	-0.30364794
37	0xbf00087b	-0.5001294
38	0x3eca0085	0.3945352
39	0x3d7e5b68	0.06209889
40	0x3d19e5f6	0.037572823
41	0xbdbc94fd	-0.09208105
42	0x3e7edd41	0.24889089
43	0xbd92b469	-0.07163317
44	0xbca194fe	-0.019724365
45	0xbca8509f	-0.020546256
46	0xbedf52cd	-0.4361786
47	0xbd830b9d	-0.063986994
48	0xbf0120d2	-0.50440705
49	0x3d2b88f0	0.04187864
50	0xbd0d6768	-0.034522444
51	0x3e8c2223	0.27369794
52	0xbe848e66	-0.2588989
53	0xbe9cb092	-0.30603462
54	0x3dee6990	0.11641228
55	0xbe136d81	-0.14397241
56	0xbe24572e	-0.16048881
57	0xbe344340	-0.17603779
58	0xbeaf7ba4	-0.34274018
59	0xbeb1db5e	-0.34737676
60	0x3e2c40d1	0.168216
61	0x3bbdf82e	0.0057974076
62	0x3eb9f97d	0.36323157
63	0xbd75dd5a	-0.06002555
64	0xba12ed03	-0.00056047755
65	0x3dfb1f72	0.12261857
66	0x3eec8ebb	0.46202645
67	0xbe391708	-0.18075192
68	0x3e443523	0.19160895
69	0x3e0f9d6f	0.140249
70	0xbd76cb4d	-0.060252476
71	0xbda85646	-0.0821958
72	0x3e6f15bc	0.23348135
73	0x3f019b21	0.5062733
74	0xbd9ca0d9	-0.07647867
75	0xbef46bdc	-0.4773854
76	0xbea1c162	-0.31592852
77	0xbc8d2e6d	-0.017234052
78	0x3dfffe26	0.12499647
79	0xbeaf104f	-0.3419213
80	0x3e60fd87	0.21971713
81	0xbea22016	-0.31665105
82	0x3d88352c	0.06650767
83	0x3d95592f	0.07292401
84	0x3c975196	0.01847152
85	0xbe42761e	-0.1899037
86	0x3f4ce082	0.8003007
87	0xbc12a5b3	-0.008950639
88	0x3e800da5	0.2501041
89	0x3e558d81	0.2085476
90	0x3e353ba3	0.17698531
91	0x3e17e663	0.1483398
92	0xbf3fedbe	-0.7497214
93	0xb944975b	-0.00018748401
94	0xbd39abc9	-0.045329843
95	0xbc99871a	-0.01874118
96	0xbe3b7386	-0.18305787
97	0x3d6dd74b	0.058066647
98	0x3ec2454b	0.3794349
99	0x3f2b9d3f	0.67036813
100	0xbe05e5c2	-0.13075927
101	0xbf091ea6	-0.5356239
102	0x3db9ef89	0.09078891
103	0x3e9b4f66	0.30334014
104	0xbdb0989c	-0.08622858
105	0x3da29810	0.0793916
106	0xbe9d02f0	-0.30666304
107	0xbedcc98b	-0.43122515
108	0x3e753889	0.23947348
109	0x3f0a784e	0.5408982
110	0xbc1861a2	-0.009300621
111	0xbdf95d99	-0.121760555
112	0x3e061248	0.13092911
113	0x3ed74046	0.42041224
114	0x3e228ad6	0.15873274
115	0x3de4d1a1	0.11172796
116	0xbee7f4c8	-0.4530394
117	0x3c697b54	0.014250595
118	0x3e21f2ef	0.15815328
119	0xbecb9f2f	-0.39769885
120	0xbdb06baf	-0.08614289
121	0xbeedfa87	-0.464802
122	0xbf27d0ec	-0.65553164
123	0x3e6b40c7	0.2297393
124	0x3eb395ed	0.35075322
125	0x3ce3e5fb	0.027819624
126	0xbe8db42f	-0.27676532
127	0xbd077218	-0.033067793
128	0xbe5d9f8f	-0.21642898
129	0xbe4cf998	-0.20017087
130	0xbd62f271	-0.05540699
131	0xbe8b293d	-0.271799
132	0xbe8bbab0	-0.2729087
133	0x3e63fee5	0.22265203
134	0xbdf91046	-0.12161307
135	0xbf001924	-0.5003836
136	0x3c0e5743	0.008687797
137	0x3e2d8c1d	0.1694798
138	0x3e149700	0.14510727
139	0x3e979d07	0.2961199
140	0xbecff217	-0.40614387
141	0x3e9890e3	0.2979804
142	0xbd41319f	-0.047166463
143	0xbf12b18f	-0.5730218
144	0x3dcc9cfa	0.099908784
145	0xbebcf721	-0.36907294
146	0x3f2db12c	0.6784847
147	0x3ea1c89e	0.3159837
148	0x3dc26e88	0.094937384
149	0xbf5757be	-0.8411826
150	0x3ef96413	0.48709163
151	0xbf0aafb8	-0.54174376
152	0x39aa04e0	0.0003242856
153	0x3cedc999	0.029026793
154	0x3ee6b7c9	0.45062092
155	0x3f0be79c	0.5465028
156	0xbf116c02	-0.5680543
157	0x3c08eab6	0.008356741
158	0xbe377167	-0.17914353
159	0x3e0440a0	0.12915277
160	0x3cac6631	0.021044822
161	0x3f6f99f3	0.9359428
162	0xbe3700a3	-0.17871337
163	0x3f6abcef	0.9169454
164	0xbdb2742a	-0.08713563
165	0xbe550703	-0.20803456
166	0xbd9b0e42	-0.07571079
167	0x3e3c61b6	0.18396649
168	0xbae78e18	-0.0017666249
169	0xbdbf6c2d	-0.09346805
170	0x3eaa096a	0.33210307
171	0xbf108c1e	-0.564638
172	0x3e54b214	0.20771056
173	0x3ef315be	0.47477525
174	0x3d5214da	0.051289417
175	0x3e1c112c	0.15240926
176	0x3ebaa057	0.36450455
177	0xbe9958df	-0.29950616
178	0xbea24023	-0.31689557
179	0xbeb75949	-0.35810307
180	0xbf00d963	-0.50331706
181	0x3ee14e31	0.44004968
182	0xbe1054aa	-0.14094797
183	0xbd6d4c90	-0.057934344
184	0xbd2d8c8b	-0.04237036
185	0xbc992a8b	-0.018697044
186	0xbe7b21f2	-0.24524668
187	0x3e690ffc	0.22760004
188	0x3de186fc	0.11012074
189	0x3c8fc428	0.01754959
190	0xbf13bb44	-0.5770762
191	0x3cf86467	0.030321313
192	0xbe9136f4	-0.28362238
193	0x3e82c7dd	0.2554311
194	0x3d9dbab7	0.07701629
195	0xbdb8ca57	-0.09022968
196	0x3e868723	0.26274976
197	0xbf00c74d	-0.5030411
198	0xbefb8936	-0.4912812
199	0xbf4865b2	-0.78280175
200	0xbf1ea22b	-0.619662
201	0xbde36989	-0.111041136
202	0xbd162cff	-0.036664005
203	0xbe075d3f	-0.13219164
204	0xbe48a750	-0.19595075
205	0xbe2be64f	-0.16787075
206	0xbed7e13f	-0.42164037
207	0x3d29ffcd	0.041503716
208	0xbda8425a	-0.082157806
209	0x3f40fb59	0.75383526
210	0x3e5a59fb	0.21323387
211	0xbeb55ec6	-0.3542387
212	0x3dab218d	0.08356009
213	0x3d87bc84	0.066277534
214	0xbf213c82	-0.6298295
215	0xbe7d01ac	-0.24707669
216	0xbed53cd8	-0.41647983
217	0xbebc1c33	-0.36740264
218	0x3d52a394	0.05142553
219	0x3ec402c5	0.38283363
220	0xbf0829e7	-0.5318894
221	0x3cfa4fa7	0.03055556
222	0xbbd2d7c4	-0.0064344127
223	0x3e137655	0.14400609
224	0x3e89dd74	0.26926768
225	0xbe6b8744	-0.23000818
226	0xbe25dbd4	-0.16197139
227	0x3f179a69	0.59219986
228	0xbe8004e3	-0.25003728
229	0xbe73a795	-0.23794396
230	0x3de0f7d5	0.1098477
231	0xbe672649	-0.22573198
232	0xbdaea447	-0.08527427
233	0xbebdcca8	-0.37070203
234	0x3e6a7dea	0.22899595
235	0x3c637901	0.01388383
236	0xbe496e90	-0.19671082
237	0xbe7d90b1	-0.24762227
238	0x3d9ba457	0.07599705
239	0x3cdd0da1	0.026984038
240	0xbdd28e7d	-0.10281084
241	0x3e4377fc	0.19088739
242	0xbe1c361b	-0.15255015
243	0xbf37e5c8	-0.71834993
244	0xbe9d1878	-0.3068273
245	0xbe030018	-0.12793005
246	0xbeed9dc7	-0.46409437
247	0x3eb2d7f3	0.3493038
248	0xbe8465eb	-0.25859007
249	0x3e8f710d	0.28015938
250	0xbe6e9a16	-0.23300967
251	0x3e395b65	0.1810127
252	0xbe815b70	-0.25265074
253	0xbec2465e	-0.3794431
254	0xbe7af699	-0.24508132
255	0xbe965fce	-0.29369968

layer3.bias f4 [128]
0	0x3effa1fa	0.49928266
1	0x3f1712d6	0.59013116
2	0xbce35187	-0.027748836
3	0xbe170983	-0.14749722
4	0xbe92d1c7	-0.28675672
5	0xbec47491	-0.38370183
6	0xbe9561a9	-0.2917607
7	0xbe099811	-0.13436915
8	0x3f01c193	0.50685996
9	0x3f1ba645	0.6080058
10	0xbe6e07b3	-0.23245125
11	0xbe9d5f53	-0.3073679
12	0xbd549bb9	-0.05190632
13	0xbeb18aaf	-0.3467612
14	0x3f610104	0.87892175
15	0xbe3f03fa	-0.1865386
16	0x3ed9c0ff	0.42530057
17	0x3d0b2b62	0.03397692
18	0xbe49f650	-0.19722867
19	0xbd8e23de	-0.06940435
20	0x3e7cbd59	0.24681605
21	0xbe3b31f9	-0.18280782
22	0xbe896fd3	-0.26843128
23	0xbe2afd6b	-0.16698234
24	0xbe148eb7	-0.14507566
25	0xbe4b30f7	-0.19842897
26	0x3e941c42	0.2892781
27	0xbf018657	-0.5059561
28	0x3d52e991	0.051492278
29	0xbe2d47c1	-0.16921903
30	0xbe045fc0	-0.1292715
31	0xbee29f3d	-0.44262114
32	0xbe3d3a78	-0.18479335
33	0xbc24a3c7	-0.010048813
34	0xbeaf4418	-0.3423164
35	0xbcbffd74	-0.023436286
36	0xbe3ec7a6	-0.18630847
37	0xbe79fa57	-0.24411903
38	0xbdad01fd	-0.08447645
39	0xbde4dd91	-0.11175073
40	0x3f1c593a	0.6107365
41	0x3eb91fe1	0.36157134
42	0xbe228566	-0.158712
43	0x3e9fd34f	0.31215903
44	0xbe9c5a90	-0.30537844
45	0xbed05292	-0.40687996
46	0xbec94ed8	-0.39317966
47	0xbefde574	-0.4958912
48	0xbe910d0d	-0.2833027
49	0xbe73097e	-0.2373409
50	0xbe3cb181	-0.18427087
51	0x3dd794ad	0.105264045
52	0x3e768d66	0.24077377
53	0x3f2ebcde	0.6825694
54	0xbe46325f	-0.19355153
55	0xbdc8259b	-0.09772798
56	0xbe727fbd	-0.23681541
57	0xbc4d6398	-0.012535952
58	0xbe42f4f8	-0.1903876
59	0x3efe2f78	0.4964559
60	0xbedd6007	-0.43237326
61	0xbeb61f0f	-0.3557057
62	0xbe86e235	-0.26344457
63	0x3cf422f6	0.029801827
64	0xbd1e4e56	-0.038648926
65	0xbd633187	-0.055467155
66	0x3d706950	0.058694184
67	0xbd3ece42	-0.04658342
68	0x3eeeaa0d	0.46614113
69	0x3eab7757	0.33489487
70	0x3ed0d392	0.40786415
71	0xbd1a7d41	-0.037717108
72	0xbe571403	-0.21003728
73	0x3ed79452	0.42105347
74	0xbed275dc	-0.41105545
75	0x3ea61413	0.3243719
76	0xbd73a9eb	-0.05948822
77	0x3e48a4a7	0.1959406
78	0xbedf8a3a	-0.43660146
79	0xbeaffa84	-0.34370816
80	0xbd5e6ded	-0.054304052
81	0xbea2de28	-0.31810117
82	0xbe20e16c	-0.15710992
83	0xbe57c143	-0.21069817
84	0xbdaeb7e3	-0.08531167
85	0x3e9d4958	0.3072002
86	0xbed6db23	-0.41964063
87	0xbdc80c36	-0.09767954
88	0xbe97df69	-0.29662636
89	0xbe30eb84	-0.17277342
90	0xbceaed49	-0.0286776
91	0xbcf09203	-0.029366499
92	0xbe6b59bb	-0.22983448
93	0xbe4c2086	-0.19934282
94	0x3cf44da5	0.02982218
95	0xbe8f9764	-0.2804519
96	0x3f02a48b	0.5103232
97	0x3dce211a	0.10064907
98	0xbdfafd37	-0.12255328
99	0xbe04337d	-0.12910266
100	0xbe1abc76	-0.15110955
101	0xbe212972	-0.15738466
102	0xbd70049c	-0.058598146
103	0x3e093af5	0.13401397
104	0xbed118eb	-0.40839323
105	0xbe43f59c	-0.19136661
106	0xbe3fcc97	-0.18730389
107	0xbe96a4fe	-0.29422754
108	0xbe9ae58a	-0.3025325
109	0x3d97580c	0.073898405
110	0x3f59e683	0.8511736
111	0xbd1eae8a	-0.038740672
112	0x3e1f9737	0.15585028
113	0xbe847492	-0.25870186
114	0x3f2fc271	0.6865607
115	0x3efd0ebb	0.494253
116	0x3e8aa8e6	0.27081984
117	0x3ea6a48d	0.32547417
118	0xbe2aa47a	-0.16664305
119	0xbd23f25e	-0.04002606
120	0xbe6aa886	-0.22915849
121	0xbecd9604	-0.40153515
122	0xbd7b9a72	-0.061426587
123	0xbe1befd9	-0.15228213
124	0x3c61924a	0.013767788
125	0x3f3b97e2	0.7327863
126	0xbea03356	-0.31289166
127	0x3df19a33	0.11796989

outlayer.weight f4 [10, 128]
0	0xbed4f9e7	-0.4159691
1	0x3eb904a3	0.3613635
2	0x3dcd1fee	0.10015856
3	0xbe4f5946	-0.20248899
4	0xbeb673e6	-0.35635298
5	0x3e8fb1af	0.2806525
6	0xbdb92e35	-0.090420164
7	0xbf398556	-0.7246908
8	0xbd8f7356	-0.070044205
9	0xbec10cb8	-0.37705016
10	0xbe95d661	-0.2926512
11	0xbed5c57a	-0.41752225
12	0x3cbea783	0.023273235
13	0xbe6a0384	-0.22852904
14	0xbe64cecd	-0.22344513
15	0xbb7b6e3d	-0.0038365268
16	0xbe6b4d25	-0.22978647
17	0x3ea8e034	0.32983553
18	0xbe00cd48	-0.12578309
19	0x3e30760f	0.17232536
20	0xbea98aaf	-0.3311362
21	0x3e1a12ec	0.1504628
22	0xbec9611c	-0.393319
23	0x3c40e5dc	0.011773553
24	0xbf32df29	-0.69871765
25	0x3e3026bc	0.17202276
26	0x3ed134e1	0.40860656
27	0xbdc1baea	-0.09459479
28	0x3ea426be	0.32060808
29	0xbf06d367	-0.52666324
30	0x3e89cf94	0.26916182
31	0xbed307b6	-0.4121682
32	0x3e774aad	0.2414958
33	0x3d2ddb8d	0.042445708
34	0xbf0cd02c	-0.55005145
35	0xbe1dac90	-0.15397859
36	0xbd06681b	-0.032814126
37	0x3b966fa4	0.0045909453
38	0x3ee069f8	0.43830848
39	0xbdb6057a	-0.08887763
40	0x3dc2063a	0.09473844
41	0x3e56ba35	0.2096947
42	0x3e67c70a	0.22634521
43	0x3dc582e7	0.09644108
44	0xbeb97884	-0.3622476
45	0x3e285c79	0.16441526
46	0xbc372a92	-0.011179583
47	0x3e94998f	0.29023406
48	0xbd1a3daf	-0.037656482
49	0x3d1f9ef4	0.03896995
50	0xbd77f40c	-0.060535476
51	0x3eb2baf8	0.3490827
52	0xbed22cbd	-0.41049758
53	0x3db040dd	0.08606122
54	0xbd9c4768	-0.07630807
55	0xbeeebec1	-0.4662991
56	0x3ed98593	0.42484722
57	0xbf193452	-0.5984546
58	0xbea76c35	-0.32699743
59	0xbf42e13d	-0.76124936
60	0xbe9474ca	-0.28995353
61	0x3e57edd5	0.2108682
62	0x3d0b196f	0.033959802
63	0x3e7a1aed	0.24424334
64	0x3df34cc9	0.1187988
65	0x3ea70ddb	0.32627758
66	0x3eefa689	0.46806744
67	0xbd86c0b4	-0.06579724
68	0x3e4f3936	0.20236668
69	0xbe895163	-0.26819906
70	0xbec1d7cb	-0.3785995
71	0x3e58f044	0.21185404
72	0xbf1d3758	-0.6141257
73	0xbe961966	-0.29316252
74	0xbecde02f	-0.402101
75	0x3e208e87	0.1567937
76	0xbea23c8e	-0.31686825
77	0xbd1eb05e	-0.038742416
78	0xbd6ce284	-0.05783321
79	0xbe0e11c5	-0.13873966
80	0xbe73139b	-0.23737948
81	0x3d9dcb41	0.07704783
82	0x3e337f2f	0.17528985
83	0xbc0e1d45	-0.008673971
84	0xbea955a5	-0.33073154
85	0xbe8b2d9f	-0.27183244
86	0x3e73ab1b	0.2379574
87	0xbd92cbc0	-0.071677685
88	0x3e8d15e3	0.2755576
89	0x3e2f0f13	0.17095594
90	0x3e9a78da	0.30170327
91	0xbecf972c	-0.40545022
92	0x3e1a5c9f	0.15074395
93	0xbe9c6249	-0.30543736
94	0x3df6d6cf	0.1205269
95	0xbe8aaf56	-0.27086896
96	0x3eaea9a3	0.34113798
97	0x3e92bb2d	0.2865843
98	0x3ed49d11	0.41526082
99	0x3e72b232	0.23700789
100	0xbf3e0be9	-0.74236923
101	0xbdfa9adf	-0.122365706
102	0xbe9ac540	-0.30228615
103	0xbf360d61	-0.71114165
104	0x3e6c35d0	0.23067403
105	0x3e73432e	0.23756096
106	0xbd9e147e	-0.07718752
107	0xbecbfa80	-0.39839554
108	0xbe9c2196	-0.30494374
109	0xbf2948b4	-0.6612656
110	0xbdf37b81	-0.11888791
111	0x3ecff9df	0.40620324
112	0x3ef7b46a	0.48379833
113	0x3e052bc2	0.13004974
114	0xbd5bd8bf	-0.053673502
115	0xbea3ae45	-0.31968895
116	0x3de9bb2f	0.114126556
117	0xbf0a3ec6	-0.54002035
118	0xbea13e36	-0.31492776
119	0xbdf1f8ca	-0.11815031
120	0xbe897008	-0.26843286
121	0xbc69c474	-0.0142680295
122	0xbd93c89a	-0.07215996
123	0xbe9c0a32	-0.30476528
124	0xbb1db920	-0.0024066642
125	0xbe28c3b3	-0.16480903
126	0xbdd81ef6	-0.1055278
127	0x3e912c67	0.2835419
128	0xbe33b820	-0.17550707
129	0x3eadbbef	0.33932444
130	0x3eea8046	0.4580099
131	0x3edc993c	0.4308566
132	0x3ed05ca2	0.40695673
133	0xbe0818a9	-0.13290657
134	0xbf00d5d4	-0.50326276
135	0x3e0512d0	0.12995458
136	0xbe6a6f53	-0.2289403
137	0xbed5796d	-0.41694203
138	0xbc6321d1	-0.013863043
139	0xbedef585	-0.43546692
140	0x3d66a67c	0.056311116
141	0x3e8935bf	0.26798818
142	0x3f05532b	0.5208003
143	0xbd4e0c79	-0.050304864
144	0x3e552acb	0.20817105
145	0x3d027a9a	0.031855203
146	0xbe4c8c26	-0.19975337
147	0xbe5e667f	-0.21718787
148	0xbd2fd4f4	-0.042927697
149	0xbdd80964	-0.10548666
150	0x3d135ee3	0.035979163
151	0x3dbf6e7d	0.09347246
152	0xbb2a996e	-0.0026031393
153	0x3b08e178	0.0020886343
154	0xbe89c829	-0.26910523
155	0xbd8f7565	-0.07004813
156	0xbe76f81e	-0.24118087
157	0xbda3d32f	-0.079992644
158	0xbea38d66	-0.31943816
159	0xbe8e9878	-0.278507
160	0x3e3c4366	0.18385085
161	0xbd5b9fa3	-0.05361904
162	0x3e58d888	0.2117635
163	0x3d24ab1d	0.04020225
164	0xbe4c1d64	-0.19933087
165	0xbe2fe84e	-0.17178461
166	0xbf8667ff	-1.0500487
167	0x3ea70acf	0.32625434
168	0xbdfe14a9	-0.12406284
169	0xbe2bdc0d	-0.16783161
170	0xbe34277a	-0.17593184
171	0x3cd02380	0.025407553
172	0x3e5fc772	0.21853426
173	0xbe8cf169	-0.2752793
174	0xbd642708	-0.055701286
175	0xbe1c4718	-0.15261495
176	0xbdfce4c0	-0.12348318
177	0xbeba1796	-0.3634612
178	0x3c964331	0.018342586
179	0xbf495de4	-0.7865889
180	0xbd39c37e	-0.04535245
181	0x3d82b160	0.06381488
182	0x3e1d3344	0.15351588
183	0xbebc62ec	-0.3679422
184	0xbe142f7a	-0.14471236
185	0x3e987d2c	0.29783
186	0x3e400e84	0.18755537
187	0xbebfadf9	-0.37437418
188	0x3e0a9c04	0.13536078
189	0x3e5522ff	0.20814131
190	0xbeee0b55	-0.4649302
191	0xbd9aa3a9	-0.07550747
192	0xbdfb7652	-0.12278427
193	0x3db3b294	0.087742954
194	0xbe950e7d	-0.29112616
195	0x3aa837e1	0.0012834036
196	0xbe7302f5	-0.23731597
197	0xbdda87bc	-0.106704205
198	0xbda9f4fe	-0.08298682
199	0xbebe6409	-0.37185696
200	0x3d2d06c7	0.04224279
201	0xbddb973a	-0.107222036
202	0x3e0381a3	0.12842421
203	0x3de4f7ca	0.111800745
204	0xbef39bd1	-0.47579816
205	0xbea096ba	-0.31364995
206	0x3eeae71f	0.45879456
207	0x3e045510	0.12923074
208	0x3e22658c	0.1585905
209	0x3e020cf3	0.12700252
210	0xbf0564dd	-0.5210703
211	0x3ece3e62	0.4028197
212	0xbe8379bd	-0.25678816
213	0xbd423915	-0.04741772
214	0xbd3cec7a	-0.04612396
215	0x3d14956d	0.036275316
216	0xbe67d850	-0.2264111
217	0xbc9c25b5	-0.019060949
218	0xbeb40049	-0.35156468
219	0x3e29d9b9	0.16586961
220	0x3e937f51	0.28808072
221	0xba8f8538	-0.0010949736
222	0x3ea79958	0.3273418
223	0xbeb86231	-0.36012414
224	0x3eb18126	0.34668845
225	0xbd1ede69	-0.038786326
226	0xbe15873d	-0.1460237
227	0xbe11ed00	-0.14250565
228	0xbf9aa171	-1.2080518
229	0xbd85defe	-0.06536673
230	0xbed2c50e	-0.41165966
231	0x3e2d45fb	0.16921227
232	0xbe1db3b2	-0.1540058
233	0x3ecd84d3	0.401404
234	0x3ce09e3d	0.027419204
235	0xbd4b4f41	-0.04963613
236	0x3db563ec	0.08856949
237	0x3e16b8be	0.14718911
238	0x3df612a8	0.12015277
239	0x3d086eca	0.03330878
240	0xbec79012	-0.38977104
241	0xbe91c366	-0.2846939
242	0xbe0b8e89	-0.13628592
243	0x3e4366f3	0.19082241
244	0xbe14f511	-0.1454661
245	0xbe3651e7	-0.17804681
246	0xbe62e7cb	-0.22158735
247	0xbdd71285	-0.10501579
248	0x3e994623	0.29936323
249	0xbd84ae9d	-0.06478617
250	0x3d326e46	0.043562196
251	0xbdca26a0	-0.098706484
252	0x3e08c457	0.13356148
253	0x3d323712	0.04350955
254	0x3ea640cf	0.3247132
255	0xbe233270	-0.15937209

outlayer.bias f4 [10]
0	0xbd279689	-0.040915046
1	0x3d838497	0.06421774
2	0xbd8a8ec4	-0.06765512
3	0xbe334fb7	-0.17510878
4	0xbc6c27eb	-0.014413814
5	0xbdc1dc4c	-0.094658464
6	0xbda98717	-0.082777195
7	0xbde38cfc	-0.11110875
8	0x3f63ca85	0.88980895
9	0xbce65960	-0.02811879

exp_avg f4 [32, 784]
0	0x34972c2f	2.815809e-07
1	0x34972c2f	2.815809e-07
2	0x34972c2f	2.815809e-07
3	0x34972c2f	2.815809e-07
4	0x34972c2f	2.815809e-07
5	0x34972c2f	2.815809e-07
6	0x34972c2f	2.815809e-07
7	0x34972c2f	2.815809e-07
8	0x34972c2f	2.815809e-07
9	0x34972c2f	2.815809e-07
10	0x34972c2f	2.815809e-07
11	0x34972c2f	2.815809e-07
12	0x34972c2f	2.815809e-07
13	0x34972c2f	2.815809e-07
14	0x34972c2f	2.815809e-07
15	0x34972c2f	2.815809e-07
16	0x34972c2f	2.815809e-07
17	0x34972c2f	2.815809e-07
18	0x34972c2f	2.815809e-07
19	0x34972c2f	2.815809e-07
20	0x34972c2f	2.815809e-07
21	0x34972c2f	2.815809e-07
22	0x34972c2f	2.815809e-07
23	0x34972c2f	2.815809e-07
24	0x34972c2f	2.815809e-07
25	0x34972c2f	2.815809e-07
26	0x34972c2f	2.815809e-07
27	0x34972c2f	2.815809e-07
28	0x34972c2f	2.815809e-07
29	0x34972c2f	2.815809e-07
30	0x34972c2f	2.815809e-07
31	0x34972c2f	2.815809e-07
32	0x34972c2f	2.815809e-07
33	0x34972c2f	2.815809e-07
34	0x34972c2f	2.815809e-07
35	0x34972c2f	2.815809e-07
36	0x34972c2f	2.815809e-07
37	0x34972c2f	2.815809e-07
38	0x34972c2f	2.815809e-07
39	0x34972c2f	2.815809e-07
40	0x34972c2f	2.815809e-07
41	0x34972c2f	2.815809e-07
42	0x34972c2f	2.815809e-07
43	0x34972c2f	2.815809e-07
44	0x34972c2f	2.815809e-07
45	0x34972c2f	2.815809e-07
46	0x34972c2f	2.815809e-07
47	0x34972c2f	2.815809e-07
48	0x34972c2f	2.815809e-07
49	0x34972c2f	2.815809e-07
50	0x34972c2f	2.815809e-07
51	0x34972c2f	2.815809e-07
52	0x34972c2f	2.815809e-07
53	0x34972c2f	2.815809e-07
54	0x34972c2f	2.815809e-07
55	0x34972c2f	2.815809e-07
56	0x34972c2f	2.815809e-07
57	0x34972c2f	2.815809e-07
58	0x34972c2f	2.815809e-07
59	0x34972c2f	2.815809e-07
60	0x34972c2f	2.815809e-07
61	0x34972c2f	2.815809e-07
62	0x34972c2f	2.815809e-07
63	0x34972c2f	2.815809e-07
64	0x34972c2f	2.815809e-07
65	0x34972c2f	2.815809e-07
66	0x34972c2f	2.815809e-07
67	0x34972c2f	2.815809e-07
68	0x34972c2f	2.815809e-07
69	0x34972c2f	2.815809e-07
70	0x34972c2f	2.815809e-07
71	0x34972c2f	2.815809e-07
72	0x34972c2f	2.815809e-07
73	0x34972c2f	2.815809e-07
74	0x34972c2f	2.815809e-07
75	0x34972c2f	2.815809e-07
76	0x34972c2f	2.815809e-07
77	0x34972c2f	2.815809e-07
78	0x34972c2f	2.815809e-07
79	0x34972c2f	2.815809e-07
80	0x34972c2f	2.815809e-07
81	0x34972c2f	2.815809e-07
82	0x34972c2f	2.815809e-07
83	0x34972c2f	2.815809e-07
84	0x34972c2f	2.815809e-07
85	0x34972c2f	2.815809e-07
86	0x34972c2f	2.815809e-07
87	0x34972c2f	2.815809e-07
88	0x34972c2f	2.815809e-07
89	0x34972c2f	2.815809e-07
90	0x34972c2f	2.815809e-07
91	0x34972c2f	2.815809e-07
92	0x34972c2f	2.815809e-07
93	0x34972c2f	2.815809e-07
94	0x34972c2f	2.815809e-07
95	0x34972c2f	2.815809e-07
96	0x34972c2f	2.815809e-07
97	0x34972c2f	2.815809e-07
98	0x34972c2f	2.815809e-07
99	0x34972c2f	2.815809e-07
100	0x34972c2f	2.815809e-07
101	0x34972c2f	2.815809e-07
102	0x34972c2f	2.815809e-07
103	0x34972c2f	2.815809e-07
104	0x34972c2f	2.815809e-07
105	0x34972c2f	2.815809e-07
106	0x34972c2f	2.815809e-07
107	0x34972c2f	2.815809e-07
108	0x34972c2f	2.815809e-07
109	0x34972c2f	2.815809e-07
110	0x34972c2f	2.815809e-07
111	0x34972c2f	2.815809e-07
112	0x34972c2f	2.815809e-07
113	0x34972c2f	2.815809e-07
114	0x34972c2f	2.815809e-07
115	0x34972c2f	2.815809e-07
116	0x34972c2f	2.815809e-07
117	0x34972c2f	2.815809e-07
118	0x34972c2f	2.815809e-07
119	0x34972c1f	2.8158044e-07
120	0x34972c1b	2.8158033e-07
121	0x34972c1b	2.8158033e-07
122	0x34972c1b	2.8158033e-07
123	0x34972c1f	2.8158044e-07
124	0x34972c1f	2.8158044e-07
125	0x34972c2f	2.815809e-07
126	0x34971346	2.8139965e-07
127	0x3496ed81	2.8112484e-07
128	0x3496ee70	2.8113163e-07
129	0x34971346	2.8139965e-07
130	0x34972c2f	2.815809e-07
131	0x34972c2f	2.815809e-07
132	0x34972c2f	2.815809e-07
133	0x34972c2f	2.815809e-07
134	0x34972c2f	2.815809e-07
135	0x34970dcf	2.813599e-07
136	0x3496d66d	2.8095693e-07
137	0x34970ac1	2.8133766e-07
138	0x34972c2f	2.815809e-07
139	0x34972c2f	2.815809e-07
140	0x34972c2f	2.815809e-07
141	0x34972c2f	2.815809e-07
142	0x34972c2f	2.815809e-07
143	0x34972c2f	2.815809e-07
144	0x34972c2f	2.815809e-07
145	0x34972c2f	2.815809e-07
146	0x34972c1f	2.8158044e-07
147	0x34972c1b	2.8158033e-07
148	0x34972c1b	2.8158033e-07
149	0x34972c37	2.8158112e-07
150	0x349950a3	2.8557142e-07
151	0x34a4f960	3.0728825e-07
152	0x34cd2eff	3.821842e-07
153	0x34c76032	3.713663e-07
154	0x34bd06b6	3.5208876e-07
155	0x34ba0e56	3.465563e-07
156	0xb6efc3cb	-7.1455484e-06
157	0xb7311fd2	-1.0557431e-05
158	0xb729fae7	-1.0131603e-05
159	0xb5e0611a	-1.6717561e-06
160	0x3498169e	2.8328662e-07
161	0x34972c2f	2.815809e-07
162	0x349716f4	2.8142642e-07
163	0x3496d7eb	2.8096778e-07
164	0x3496d733	2.8096255e-07
165	0x349716f4	2.8142642e-07
166	0x34972c2f	2.815809e-07
167	0x34972c2f	2.815809e-07
168	0x34972c2f	2.815809e-07
169	0x34972c2f	2.815809e-07
170	0x34972c2f	2.815809e-07
171	0x34972c2f	2.815809e-07
172	0x34972c2f	2.815809e-07
173	0x34972c2f	2.815809e-07
174	0x34972c1b	2.8158033e-07
175	0x34972c1b	2.8158033e-07
176	0x34972c1b	2.8158033e-07
177	0x34a53617	3.0773e-07
178	0x34c1af35	3.607653e-07
179	0x34bc6d43	3.5097227e-07
180	0x34abdd9e	3.201248e-07
181	0x3506632c	5.0063204e-07
182	0x358bd794	1.0419049e-06
183	0x35b0f014	1.3182894e-06
184	0xb700863c	-7.660648e-06
185	0xb721e307	-9.649207e-06
186	0xb72a2877	-1.0142211e-05
187	0xb63a3957	-2.7749536e-06
188	0x34992e4f	2.8532165e-07
189	0x3499212a	2.85226e-07
190	0x3498d6d1	2.8468506e-07
191	0x34974d80	2.818233e-07
192	0x349720ef	2.8149904e-07
193	0x34972c2f	2.815809e-07
194	0x34972c2f	2.815809e-07
195	0x34972c2f	2.815809e-07
196	0x34972c2f	2.815809e-07
197	0x34972c2f	2.815809e-07
198	0x34972c2f	2.815809e-07
199	0x34972c2f	2.815809e-07
200	0x34972c2f	2.815809e-07
201	0x34963553	2.7978476e-07
202	0x3493c77a	2.7526022e-07
203	0x349677bb	2.8026793e-07
204	0x34a12a67	3.001944e-07
205	0x34d2e4f3	3.928213e-07
206	0x34b6b944	3.403494e-07
207	0x34a92765	3.1507366e-07
208	0x356307f8	8.4575686e-07
209	0x35ca5b16	1.5076682e-06
210	0x35c3ffb0	1.4603047e-06
211	0xb61674a4	-2.2419636e-06
212	0xb71123f8	-8.651048e-06
213	0xb71a4306	-9.19472e-06
214	0xb70afdb7	-8.284514e-06
215	0x34dc7ed6	4.1070479e-07
216	0x34992a84	2.8529405e-07
217	0x3498e7b9	2.8480807e-07
218	0x3498cf0a	2.8462847e-07
219	0x34990a9d	2.8506193e-07
220	0x34972cbb	2.8158487e-07
221	0x34972c2f	2.815809e-07
222	0x34972c2f	2.815809e-07
223	0x34972c2f	2.815809e-07
224	0x34972c2f	2.815809e-07
225	0x34972c2f	2.815809e-07
226	0x34972c2f	2.815809e-07
227	0x34972c2f	2.815809e-07
228	0x34972c2f	2.815809e-07
229	0x34940073	2.7567475e-07
230	0x34927671	2.7280797e-07
231	0x35bd2690	1.409282e-06
232	0x3656c8cc	3.2005364e-06
233	0x36a1a941	4.8178777e-06
234	0x360035ba	1.910476e-06
235	0x362f2a53	2.6101668e-06
236	0x361fd05c	2.3814127e-06
237	0x35c6f805	1.4824333e-06
238	0x3528132c	6.2612776e-07
239	0xb7285dd1	-1.0035424e-05
240	0xb7225339	-9.675329e-06
241	0xb71b0d47	-9.241811e-06
242	0xb6cdfdb4	-6.139011e-06
243	0x356f7c51	8.921534e-07
244	0x3498e883	2.848138e-07
245	0x3498cd87	2.8461747e-07
246	0x349902a4	2.8500392e-07
247	0x34992e43	2.853213e-07
248	0x34972ce0	2.8158593e-07
249	0x34972c2f	2.815809e-07
250	0x34972c2f	2.815809e-07
251	0x34972c2f	2.815809e-07
252	0x34972c2f	2.815809e-07
253	0x34972c2f	2.815809e-07
254	0x34972c2f	2.815809e-07
255	0x34972c2f	2.815809e-07

exp_avg_sq f4 [32, 784]
0	0x37ba867a	2.2235548e-05
1	0x37ba867a	2.2235548e-05
2	0x37ba867a	2.2235548e-05
3	0x37ba867a	2.2235548e-05
4	0x37ba867a	2.2235548e-05
5	0x37ba867a	2.2235548e-05
6	0x37ba867a	2.2235548e-05
7	0x37ba867a	2.2235548e-05
8	0x37ba867a	2.2235548e-05
9	0x37ba867a	2.2235548e-05
10	0x37ba867a	2.2235548e-05
11	0x37ba867a	2.2235548e-05
12	0x37ba867a	2.2235548e-05
13	0x37ba867a	2.2235548e-05
14	0x37ba867a	2.2235548e-05
15	0x37ba867a	2.2235548e-05
16	0x37ba867a	2.2235548e-05
17	0x37ba867a	2.2235548e-05
18	0x37ba867a	2.2235548e-05
19	0x37ba867a	2.2235548e-05
20	0x37ba867a	2.2235548e-05
21	0x37ba867a	2.2235548e-05
22	0x37ba867a	2.2235548e-05
23	0x37ba867a	2.2235548e-05
24	0x37ba867a	2.2235548e-05
25	0x37ba867a	2.2235548e-05
26	0x37ba867a	2.2235548e-05
27	0x37ba867a	2.2235548e-05
28	0x37ba867a	2.2235548e-05
29	0x37ba867a	2.2235548e-05
30	0x37ba867a	2.2235548e-05
31	0x37ba867a	2.2235548e-05
32	0x37ba867a	2.2235548e-05
33	0x37ba867a	2.2235548e-05
34	0x37ba867a	2.2235548e-05
35	0x37ba867a	2.2235548e-05
36	0x37ba867a	2.2235548e-05
37	0x37ba867a	2.2235548e-05
38	0x37ba867a	2.2235548e-05
39	0x37ba867a	2.2235548e-05
40	0x37ba867a	2.2235548e-05
41	0x37ba867a	2.2235548e-05
42	0x37ba867a	2.2235548e-05
43	0x37ba867a	2.2235548e-05
44	0x37ba867a	2.2235548e-05
45	0x37ba867a	2.2235548e-05
46	0x37ba867a	2.2235548e-05
47	0x37ba867a	2.2235548e-05
48	0x37ba867a	2.2235548e-05
49	0x37ba867a	2.2235548e-05
50	0x37ba867a	2.2235548e-05
51	0x37ba867a	2.2235548e-05
52	0x37ba867a	2.2235548e-05
53	0x37ba867a	2.2235548e-05
54	0x37ba867a	2.2235548e-05
55	0x37ba867a	2.2235548e-05
56	0x37ba867a	2.2235548e-05
57	0x37ba867a	2.2235548e-05
58	0x37ba867a	2.2235548e-05
59	0x37ba867a	2.2235548e-05
60	0x37ba867a	2.2235548e-05
61	0x37ba867a	2.2235548e-05
62	0x37ba867a	2.2235548e-05
63	0x37ba867a	2.2235548e-05
64	0x37ba867a	2.2235548e-05
65	0x37ba867a	2.2235548e-05
66	0x37ba867a	2.2235548e-05
67	0x37ba867a	2.2235548e-05
68	0x37ba867a	2.2235548e-05
69	0x37ba867d	2.2235554e-05
70	0x37ba8ace	2.2237564e-05
71	0x37baa101	2.2247901e-05
72	0x37bb0ce6	2.2298143e-05
73	0x37ba8344	2.2234053e-05
74	0x37ba867a	2.2235548e-05
75	0x37ba867a	2.2235548e-05
76	0x37ba867a	2.2235548e-05
77	0x37ba867a	2.2235548e-05
78	0x37ba867a	2.2235548e-05
79	0x37ba867a	2.2235548e-05
80	0x37ba867a	2.2235548e-05
81	0x37ba867a	2.2235548e-05
82	0x37ba867a	2.2235548e-05
83	0x37ba867a	2.2235548e-05
84	0x37ba867a	2.2235548e-05
85	0x37ba867a	2.2235548e-05
86	0x37ba867a	2.2235548e-05
87	0x37ba867a	2.2235548e-05
88	0x37ba867a	2.2235548e-05
89	0x37ba8672	2.2235534e-05
90	0x37ba87a6	2.2236094e-05
91	0x37ba8804	2.2236265e-05
92	0x37ba86af	2.2235645e-05
93	0x37bc86aa	2.2474054e-05
94	0x37bca14a	2.2486453e-05
95	0x37ba8fb5	2.2239847e-05
96	0x37bb8246	2.23528e-05
97	0x37baaad4	2.2252476e-05
98	0x37baa770	2.2250897e-05
99	0x37bac3f0	2.2264168e-05
100	0x37b21ed8	2.1233616e-05
101	0x381ecd46	3.786131e-05
102	0x37ba8f82	2.2239754e-05
103	0x37ba8fa4	2.2239816e-05
104	0x37ba867d	2.2235554e-05
105	0x37ba867a	2.2235548e-05
106	0x37ba867a	2.2235548e-05
107	0x37ba867a	2.2235548e-05
108	0x37ba867a	2.2235548e-05
109	0x37ba867a	2.2235548e-05
110	0x37ba867d	2.2235554e-05
111	0x37ba867a	2.2235548e-05
112	0x37ba867a	2.2235548e-05
113	0x37ba867a	2.2235548e-05
114	0x37ba867a	2.2235548e-05
115	0x37ba867a	2.2235548e-05
116	0x37ba867a	2.2235548e-05
117	0x37ba869c	2.223561e-05
118	0x379bed11	1.8587833e-05
119	0x378ba7b0	1.6648177e-05
120	0x38bb6a35	8.9366375e-05
121	0x38c67f94	9.465139e-05
122	0x37ded4f4	2.6563626e-05
123	0x3801fea1	3.099314e-05
124	0x37e1cd5f	2.6917724e-05
125	0x382ab1f0	4.0696876e-05
126	0x381ad104	3.6911122e-05
127	0x3807fbed	3.2421132e-05
128	0x37cf3279	2.4699826e-05
129	0x38428bb8	4.6383328e-05
130	0x37bc6d70	2.2462307e-05
131	0x37be72c4	2.2703207e-05
132	0x37bdbe43	2.2619153e-05
133	0x37bf220a	2.2784825e-05
134	0x37c1b0f1	2.3089788e-05
135	0x37bd316d	2.2553571e-05
136	0x37bac5a4	2.2264961e-05
137	0x37ba8779	2.2236012e-05
138	0x37ba867a	2.2235548e-05
139	0x37ba867a	2.2235548e-05
140	0x37ba867a	2.2235548e-05
141	0x37ba867a	2.2235548e-05
142	0x37ba867a	2.2235548e-05
143	0x37ba867a	2.2235548e-05
144	0x37ba866b	2.2235521e-05
145	0x379bf8b3	1.859325e-05
146	0x388d2b98	6.731524e-05
147	0x3994c5f1	0.00028376238
148	0x39952563	0.0002844735
149	0x39a4b9ef	0.0003141905
150	0x39f56818	0.00046807597
151	0x3915e456	0.00014294809
152	0x39221568	0.00015457498
153	0x39a2ce16	0.00031052594
154	0x39e96a0d	0.00044520237
155	0x39e0594a	0.00042791135
156	0x396e5cf4	0.00022732076
157	0x3971a014	0.00023043185
158	0x394de7cc	0.00019636675
159	0x39504bc4	0.0001986465
160	0x3968f9c8	0.00022218295
161	0x38d9eba9	0.000103912615
162	0x38180e12	3.6252728e-05
163	0x37a44d6c	1.9586376e-05
164	0x37bc0d1e	2.2417455e-05
165	0x37ba84c1	2.2234746e-05
166	0x37ba86a0	2.2235618e-05
167	0x37ba867d	2.2235554e-05
168	0x37ba867a	2.2235548e-05
169	0x37ba867a	2.2235548e-05
170	0x37ba867a	2.2235548e-05
171	0x37ba867a	2.2235548e-05
172	0x37ba8641	2.2235445e-05
173	0x38953d61	7.1163064e-05
174	0x3994e8a6	0.00028402096
175	0x3998b9d9	0.00029130167
176	0x39a6a478	0.00031784526
177	0x3a015753	0.0004933972
178	0x3a056646	0.00050887873
179	0x39fddfba	0.0004842261
180	0x39d40427	0.00040438885
181	0x39eee6fd	0.00045566997
182	0x39f8737f	0.00047388297
183	0x39f94b72	0.00047549192
184	0x399d8776	0.000300463
185	0x39858992	0.00025470235
186	0x3980393e	0.0002445671
187	0x39c3e25d	0.00037361952
188	0x39d195e9	0.00039975278
189	0x39c512e1	0.00037588834
190	0x394c4e76	0.00019484185
191	0x38ac5013	8.216514e-05
192	0x37bb8379	2.2353359e-05
193	0x37ba9aab	2.224495e-05
194	0x37ba867a	2.2235548e-05
195	0x37ba867a	2.2235548e-05
196	0x37ba867a	2.2235548e-05
197	0x37ba867a	2.2235548e-05
198	0x37ba867a	2.2235548e-05
199	0x37ba73b4	2.2226806e-05
200	0x37c850df	2.3879516e-05
201	0x3836dfbb	4.3600547e-05
202	0x3995b450	0.00028553838
203	0x39b6e94b	0.00034887562
204	0x399743e2	0.0002885154
205	0x3996c3d0	0.0002875612
206	0x39644fd3	0.00021773511
207	0x39d1d352	0.00040021032
208	0x3a1b4531	0.0005923091
209	0x3a0e4e68	0.00054285536
210	0x39c6f137	0.00037945222
211	0x39b944a8	0.00035337103
212	0x39b5832b	0.00034620738
213	0x39bbc937	0.00035817336
214	0x398a9e6e	0.0002643945
215	0x397dd254	0.00024206314
216	0x398a6cbd	0.00026402427
217	0x39c21460	0.00037017744
218	0x396b711c	0.00022453483
219	0x39290d0c	0.00016121956
220	0x37b2c4a0	2.1310814e-05
221	0x37c0c6a9	2.2980692e-05
222	0x37ba8784	2.2236032e-05
223	0x37ba867a	2.2235548e-05
224	0x37ba867a	2.2235548e-05
225	0x37ba867a	2.2235548e-05
226	0x37ba867a	2.2235548e-05
227	0x37b9e6df	2.2161226e-05
228	0x37cca9d0	2.439777e-05
229	0x3912651d	0.00013961313
230	0x399d3c24	0.00029990182
231	0x39bc5bcf	0.00035926557
232	0x3989a58a	0.00026254012
233	0x39914fe9	0.00027716093
234	0x391a73e8	0.00014729763
235	0x398550b5	0.00025427868
236	0x3a03de80	0.00050304085
237	0x3a0d2588	0.0005384316
238	0x3a11cdc7	0.0005561974
239	0x39cd4db8	0.00039158552
240	0x39c246ea	0.000370554
241	0x39beeb73	0.00036415047
242	0x39973b3f	0.00028845106
243	0x39449ff4	0.00018751604
244	0x3889485a	6.5461456e-05
245	0x389df192	7.531339e-05
246	0x39018ce0	0.00012354879
247	0x394d82a6	0.00019598994
248	0x3896f05b	7.197327e-05
249	0x37bd69ca	2.2579818e-05
250	0x37ba8501	2.2234863e-05
251	0x37ba867a	2.2235548e-05
252	0x37ba867a	2.2235548e-05
253	0x37ba867a	2.2235548e-05
254	0x37ba867a	2.2235548e-05
255	0x37cfd909	2.4777388e-05

exp_avg f4 [32]
0	0xb5322e11	-6.63772e-07
1	0x3a830cca	0.0009998318
2	0xba37b8dc	-0.0007008442
3	0xb8959118	-7.1318995e-05
4	0x39bb104a	0.00035679556
5	0x00000004	6e-45
6	0x00000004	6e-45
7	0xb195eb75	-4.363239e-09
8	0x386744b8	5.513869e-05
9	0xba2664bb	-0.00063474075
10	0x00000004	6e-45
11	0x3994352a	0.0002826837
12	0x2f6ca9e6	2.1524435e-10
13	0xb92687cd	-0.00015881583
14	0xba1424e0	-0.0005651247
15	0x00000004	6e-45
16	0x3994edeb	0.00028406022
17	0xaa8f71a7	-2.5480765e-13
18	0x00000004	6e-45
19	0xb8d4909b	-0.000101358826
20	0xb9d707a4	-0.00041013688
21	0xb99827e8	-0.00029021432
22	0x00000004	6e-45
23	0xb934c099	-0.00017237886
24	0x3a1f164c	0.0006068691
25	0x39f7ce5b	0.00047265258
26	0xb8012da8	-3.0798517e-05
27	0x00000004	6e-45
28	0xba11c35a	-0.00055604207
29	0xb9421783	-0.0001851004
30	0x00000004	6e-45
31	0xb9dec57b	-0.00042490274

exp_avg_sq f4 [32]
0	0x39019011	0.00012356068
1	0x39448014	0.0001873973
2	0x38f0d5bf	0.00011483905
3	0x384d07f6	4.8883223e-05
4	0x38115250	3.4647353e-05
5	0x000001f4	7e-43
6	0x000001f4	7e-43
7	0x389e3115	7.543169e-05
8	0x385c4cc5	5.2523585e-05
9	0x397ba663	0.00023999209
10	0x000001f4	7e-43
11	0x3895aba5	7.136845e-05
12	0x39d20dee	0.000400647
13	0x369623b0	4.474503e-06
14	0x37c75a48	2.376469e-05
15	0x000001f4	7e-43
16	0x38800a98	6.105489e-05
17	0x372f74f2	1.0458041e-05
18	0x000001f4	7e-43
19	0x388e2e9f	6.7797715e-05
20	0x38a5b106	7.900786e-05
21	0x381de3d7	3.764391e-05
22	0x000001f4	7e-43
23	0x389a949c	7.370973e-05
24	0x3883bb11	6.2814106e-05
25	0x389ce72b	7.481718e-05
26	0x38e21fb8	0.00010782428
27	0x000001f4	7e-43
28	0x392f1ec4	0.00016700762
29	0x38d512bb	0.0001016012
30	0x000001f4	7e-43
31	0x397f79f8	0.00024364132
