model/outputs/model_0.pth (torch, 143382 bytes, 18 tensors)

layer_1.weight f4 [14, 784]
-0.025270957 -0.045411382 -0.07845872 -0.03270879 -0.057028253 -0.04438178 -0.063075125 -0.04209551
-0.053403605 -0.027641088 -0.08534896 -0.08224466 -0.06559414 -0.03768592 -0.052969623 -0.07795722
-0.07716072 -0.06545738 -0.04450622 -0.04265548 -0.07443402 -0.074120246 -0.0628044 -0.016760662
-0.05390509 -0.070234045 -0.08562984 -0.03345023 -0.05235782 -0.02880526 -0.047669437 -0.06886416
-0.067232 -0.02480139 -0.05366095 -0.030978685 -0.07294967 -0.085805126 -0.06542934 -0.06817639
-0.050816964 -0.004257333 -0.032563638 -0.009052825 -0.0315165 -0.029522886 -0.052151706 -0.048003647
-0.044022217 -0.07191319 -0.03464889 -0.07588386 -0.073943354 -0.025383387 -0.03636088 -0.06206758
-0.08143283 -0.07512949 -0.0719705 -0.036250405 -0.08372599 -0.018143203 -0.063153386 -0.045866244
-0.036722254 -0.035898335 0.0033682827 -0.027225189 -0.047771048 -0.011388636 -0.04515988 -0.06370442
-0.07532598 -0.068928726 -0.04257494 -0.027559316 -0.015238022 -0.026580364 -0.087941386 -0.02263621
-0.050099194 -0.06780328 -0.05851319 -0.03200994 -0.0819756 -0.046851594 -0.05046302 -0.033798695
-0.05070161 -0.053894877 -0.0432437 -0.0025035136 -0.025755841 0.0043819193 0.04737385 0.03644717
0.05213137 0.07741399 -0.033545166 -0.078968585 -0.06500004 -0.04895706 -0.034947213 0.023465922
0.004555917 -0.029136645 -0.071797356 -0.10837349 -0.062681444 -0.016945804 -0.0538937 -0.027111527
-0.069023475 -0.06656591 -0.07776568 -0.03765358 -0.0364649 -0.01863057 -0.004476694 0.00027092244
0.059612796 0.08014776 0.098077096 0.12978524 0.09986652 0.06361165 0.099245235 0.030027278
-0.029137218 -0.08467957 -0.012581175 -0.029725403 -0.123238906 -0.19068 -0.21313466 -0.1663297
-0.09986031 -0.052729335 -0.053649135 -0.07611494 -0.030178454 -0.0787335 -0.08632138 -0.063585676
-0.02971633 0.0042472812 0.0559597 0.019185858 0.028881492 0.010754841 0.07059082 0.100655735
0.13080935 0.09099902 0.090465315 0.061289355 0.0034556016 -0.058147456 -0.113799356 -0.09622364
-0.12453296 -0.14371847 -0.18164985 -0.25255406 -0.14112066 -0.037950866 -0.06366388 -0.048084036
-0.047632206 -0.06406015 -0.07566307 -0.06700978 -0.016029127 0.047585357 0.07344011 0.10673841
0.10110764 0.104945734 0.1383669 0.15479048 0.12470051 0.14617056 0.08423699 0.057569135
0.06673337 0.045727354 0.048476957 -0.014447373 0.016032338 -0.024166064 -0.12425184 -0.2457494
-0.26581562 -0.13246718 -0.087238304 -0.0469074 -0.07690803 -0.029159106 -0.0029474488 0.033518013
0.11535437 0.13816601 0.17868286 0.17207506 0.1302599 0.19709845 0.2205624 0.13802604
0.18014501 0.118482344 0.09128729 0.10287461 0.07248349 0.058691505 0.0928359 0.10755787
0.078507975 -0.004046663 -0.11128203 -0.21271056 -0.26714477 -0.22646673 -0.099550724 -0.050404664
-0.047436815 -0.08298431 -0.062933296 0.023827849 0.11584619 0.14579645 0.17006975 0.1590666
0.17249441 0.14362958 0.13682985 0.13709822 0.16084112 0.120622724 0.1857936 0.12898152
0.11750291 0.06421066 0.11341238 0.1121379 0.038987193 0.020943183 -0.077927 -0.2435376
-0.297307 -0.22350429 -0.122728676 -0.06224703 -0.0720226 -0.07108664 -0.018321691 0.038187668
00000000: 0a05 cfbc 4901 3abd f7ae a0bd a7f9 05bd
00000010: 7596 69bd abc9 35bd 882d 81bd 576c 2cbd
00000020: bdbd 5abd 906f e2bc 6fcb aebd e36f a8bd
00000030: 3856 86bd 8d5c 1abd adf6 58bd 09a8 9fbd
00000040: 7106 9ebd 850e 86bd 274c 36bd 83b7 2ebd
00000050: dd70 98bd 5bcc 97bd 989f 80bd a84d 89bc
00000060: 95cb 5cbd ded6 8fbd b35e afbd 1c03 09bd
00000070: 2775 56bd 02f9 ebbc 0741 43bd a708 8dbd
00000080: eeb0 89bd 492c cbbc 96cb 5bbd 03c7 fdbc
00000090: a366 95bd 99ba afbd d1ff 85bd 10a0 8bbd
000000a0: 7325 50bd 1981 8bbb 7361 05bd 4d52 14bc
000000b0: 7217 01bd fbd9 f1bc 079d 55bd 799f 44bd
000000c0: a450 34bd 3947 93bd ffeb 0dbd ff68 9bbd
000000d0: 9d6f 97bd d2f0 cfbc 25ef 14bd 933a 7ebd
000000e0: 41c6 a6bd 7ddd 99bd 4565 93bd 4e7b 14bd
000000f0: 8878 abbd 0ea1 94bc 9056 81bd 3ede 3bbd
00000100: 136a 16bd 220a 13bd 68be 5c3b 5c07 dfbc
00000110: 93ab 43bd 6797 3abc 91f9 38bd 7777 82bd
00000120: 8244 9abd 812a 8dbd 0f63 2ebd 13c4 e1bc
00000130: e6a8 79bc 10bf d9bc 9d1a b4bd 936f b9bc
00000140: d034 4dbd 72dc 8abd 87ab 6fbd db1c 03bd
00000150: d3e2 a7bd 75e7 3fbd 50b2 4ebd 8070 0abd
00000160: 7eac 4fbd e0c0 5cbd 4e20 31bd fd11 24bb
00000170: eafd d2bc 3496 8f3b 150b 423d a149 153d
00000180: b487 553d 3a8b 9e3d a866 09bd 48ba a1bd
00000190: be1e 85bd 3387 48bd cf24 0fbd 9b3b c03c
000001a0: cd49 953b f9af eebc 7e0a 93bd ecf2 ddbd
000001b0: 215f 80bd edd1 8abc a4bf 5cbd fe18 debc
000001c0: 2e5c 8dbd b553 88bd 9d43 9fbd a43a 1abd
000001d0: 385c 15bd 239f 98bc 3bb1 92bb 980a 8e39
000001e0: 8c2c 743d 8224 a43d a5dc c83d 6ce6 043e
000001f0: d186 cc3d d346 823d 1641 cb3d c4fb f53c
00000200: 2db1 eebc 7b6c adbd 4621 4ebc b082 f3bc
00000210: ae64 fcbd 9e41 43be f93f 5abe 5552 2abe
00000220: 9083 ccbd b7fa 57bd 32bf 5bbd 26e2 9bbd
00000230: ce38 f7bc 073f a1bd 44c9 b0bd 3539 82bd
00000240: a96f f3bc c72c 8b3b 0036 653d a92b 9d3c
00000250: e198 ec3c 1335 303c eb91 903d 9824 ce3d
00000260: e3f2 053e b25d ba3d e145 b93d 8c0a 7b3d
00000270: 6077 623b 072c 6ebd a30f e9bd e610 c5bd
00000280: 230b ffbd ef2a 13be 6b02 3abe c44e 81be
00000290: ef81 10be 5e72 1bbd 3562 82bd c4f3 44bd
000002a0: fd19 43bd f831 83bd 3df5 9abd 6c3c 89bd
000002b0: 844f 83bc dde8 423d c567 963d ab99 da3d
000002c0: 8611 cf3d caed d63d 0db0 0d3e 6581 1e3e
000002d0: fb62 ff3d bcad 153e 7184 ac3d 9dcd 6b3d
000002e0: 81ab 883d 9b4c 3b3d c68f 463d adb4 6cbc
000002f0: 4056 833c e9f7 c5bc c077 febd bba5 7bbe
00000300: fc18 88be 7aa5 07be ffa9 b2bd f921 40bd
00000310: f581 9dbd 14df eebc fc29 41bb 2f4a 093d
00000320: e93e ec3d 647b 0d3e a4f8 363e 7234 303e
00000330: da62 053e 2dd4 493e 1cdb 613e b356 0d3e
00000340: ef77 383e dfa6 f23d d5f4 ba3d ecaf d23d
00000350: 3972 943d 8166 703d c020 be3d 4d47 dc3d
00000360: cac8 a03d df99 84bb d5e7 e3bd ccd0 59be
00000370: 33c7 88be e5e6 67be 40e1 cbbd 1f75 4ebd
00000380: 1b4d 42bd aef3 a9bd 2ce3 80bd 9f32 c33c
00000390: c440 ed3d aa4b 153e c426 2e3e 5be2 223e
000003a0: 60a2 303e a213 133e 201d 0c3e 7a63 0c3e
000003b0: 89b3 243e 0c09 f73d ad40 3e3e bb13 043e
000003c0: 5ea5 f03d e180 833d c044 e83d 8ea8 e53d
000003d0: 09b1 1f3d 0a91 ab3c 3198 9fbd ec61 79be
000003e0: a038 98be 4fde 64be 2c59 fbbd bef6 7ebd
000003f0: 9680 93bd df95 91bd 5f17 96bc ac6a 1c3d

layer_1.bias f4 [14]
0.027395615 -0.008072231 -0.021126358 0.018938618 0.047609393 0.056735683 0.048715606 -0.037356492
0.061311632 0.028875055 0.0964153 0.01666378 0.014036538 -0.0038629319
00000000: c56c e03c 6441 04bc 2f11 adbc 2925 9b3c
00000010: 1102 433d ad63 683d 048a 473d 1f03 19bd
00000020: e821 7b3d 618b ec3c 6375 c53d 7b82 883c
00000030: 82f9 653c 3e29 7dbb

layer_2.weight f4 [14, 14]
-0.109848216 -0.034066036 0.14719354 -0.09503211 0.08380231 -0.027323918 -0.18828554 -0.19313931
-0.20365159 0.029489852 -0.103847235 -0.15502201 -0.08634384 -0.18291149 0.06487444 -0.051169045
0.104871094 0.39845693 -0.2432509 0.12240868 -0.12980543 -0.11053646 -0.2709564 0.20486876
-0.039127436 0.07781224 -0.1706946 0.039106738 0.14243503 0.17439008 -0.25436714 -0.13233486
0.47325683 -0.057760876 0.06640846 0.09526959 -0.18563345 0.03820965 -0.017503614 -0.06481956
0.17650685 0.42108038 0.37705663 -0.038415052 0.08207235 0.33556595 0.39412373 0.09733643
-0.27686945 -0.023338765 0.33861336 0.023274375 0.38814604 -0.025507974 0.047498226 -0.39681798
0.33538628 -0.067379974 -0.015773479 -0.11132779 0.06739522 -0.08038709 -0.0231054 -0.08223182
-0.407392 0.30411297 0.42238188 0.38785267 0.18187845 -0.23107678 0.014048425 0.25563946
0.18842848 0.1844055 0.48081356 -0.2865434 0.32010487 0.20699452 -0.064777166 0.12354812
-0.29582664 -0.044458624 0.40120992 0.090720534 -0.021487208 0.31155446 0.50609595 -0.09646493
-0.084586166 -0.008370151 0.5121627 0.10428106 -0.15221564 0.054525655 0.32823378 -0.04146226
0.04581914 0.15849558 0.057914905 0.26917914 0.16451222 -0.10636395 -0.28001538 0.32355112
0.13432401 0.068308756 -0.07080176 0.31687456 0.21308024 0.06485777 -0.52776855 0.081899524
-0.033299025 0.1621658 -0.18882202 0.27594882 -0.22839762 0.17363918 -0.20513858 0.26056772
0.239382 0.5308096 -0.3536825 0.38910007 -0.049166232 0.49344888 0.41958246 0.37559402
-0.12040309 -0.12814651 -0.24119821 -0.17147195 0.14033957 0.05566818 0.27040067 -0.37605375
-0.06885912 0.0019489741 0.19626676 -0.17098081 -0.16741866 0.03182238 0.0879242 0.45009634
-0.35142183 0.36630097 0.39982232 0.08335553 0.05085139 -0.05404042 0.037488557 0.13229576
-0.15732768 0.032180097 0.24963316 -0.25908113 0.14247942 0.2280116 0.5449789 0.3634541
0.1842076 0.18633506 -0.35944325 0.111244 0.105272226 -0.3377222 0.2122288 -0.2466037
-0.19330063 0.0880337 0.1338148 -0.2884307 0.14513971 -0.117829524 0.243227 -0.2279556
0.3894142 0.45743537 0.1256311 0.042833377 -0.17393656 0.4015206 0.13867497 0.15727368
0.082903616 -0.043785755 0.16652292 -0.20146315 0.0060222023 -0.23409022 -0.18149818 0.008659639
-0.036145404 0.32858813 0.38735306 0.4845726
00000000: 1af8 e0bd d488 0bbd e7b9 163e 32a0 c2bd
00000010: 8ca0 ab3d 69d6 dfbc edcd 40be 50c6 45be
00000020: 0b8a 50be b494 f13c dcad d4bd 17be 1ebe
00000030: 0ad5 b0bd 264d 3bbe e4dc 843d a296 51bd
00000040: a8c6 d63d 8c02 cc3e c416 79be 67b1 fa3d
00000050: b7eb 04be f160 e2bd ccba 8abe 1ec9 513e
00000060: 1744 20bd 065c 9f3d 91ca 2ebe 632e 203d
00000070: 7dda 113e 5093 323e 693c 82be ca82 07be
00000080: b84e f23e ab96 6cbd 2901 883d b41c c33d
00000090: b216 3ebe b981 1c3d bd63 8fbc 1ec0 84bd
000000a0: 36be 343e d997 d73e 910d c13e 1a59 1dbd
000000b0: 8c15 a83d 4dcf ab3e 96ca c93e 5258 c73d
000000c0: d5c1 8dbe f030 bfbc bb5e ad3e e7a9 be3c
000000d0: 14bb c63e 19f6 d0bc 808d 423d ba2b cbbe
000000e0: c0b7 ab3e 83fe 89bd 6237 81bc d3ff e3bd
000000f0: 8106 8a3d fda1 a4bd 8947 bdbc 2869 a8bd
00000100: af95 d0be b2b4 9b3e 7042 d83e a094 c63e
00000110: 583e 3a3e 649f 6cbe 5d2b 663c 2de3 823e
00000120: 65f3 403e ccd4 3c3e 322d f63e d1b5 92be
00000130: c9e4 a33e 5ff6 533e e4a9 84bd cc06 fd3d
00000140: 9776 97be 3f1a 36bd 636b cd3e b0cb b93d
00000150: f105 b0bc 1184 9f3e 818f 013f 688f c5bd
00000160: 833b adbd f522 09bc 181d 033f 4f91 d53d
00000170: 6bde 1bbe 4b56 5f3d 420e a83e 55d4 29bd
00000180: daac 3b3d aa4c 223e 2e38 6d3d d9d1 893e
00000190: e475 283e 58d5 d9bd 2d5e 8fbe 7ea8 a53e
000001a0: 3c8c 093e 76e5 8b3d 8300 91bd 623d a23e
000001b0: b531 5a3e 27d4 843d d71b 07bf f0ba a73d
000001c0: 8f64 08bd cb0e 263e 8f5a 41be 2a49 8d3e
000001d0: 11e1 69be 78ce 313e d90f 52be 2269 853e
000001e0: 8e20 753e 23e3 073f df15 b5be 2038 c73e
000001f0: 8862 49bd 55a5 fc3e 83d3 d63e dc4d c03e
00000200: e595 f6bd d738 03be aafc 76be 5896 2fbe
00000210: 2db5 0f3e 5104 643d f571 8a3e 1e8a c0be
00000220: 0306 8dbd b874 ff3a 27fa 483e 9815 2fbe
00000230: cc6f 2bbe 2f58 023d 9a11 b43d 0773 e63e
00000240: 90ed b3be cd8b bb3e 83b5 cc3e 4eb6 aa3d
00000250: 8c49 503d 7d59 5dbd 9a8d 193d 8a78 073e
00000260: 821a 21be 47cf 033d d69f 7f3e 48a6 84be
00000270: 20e6 113e df7b 693e bd83 0b3f a816 ba3e
00000280: eba0 3c3e 9ece 3e3e f208 b8be e5d3 e33d
00000290: f798 d73d ede9 acbe 8252 593e ae85 7cbe
000002a0: 9af0 45be 034b b43d bf06 093e 30ad 93be
000002b0: 819f 143e 9b50 f1bd 8010 793e 316d 69be
000002c0: 4c61 c73e f834 ea3e 70a5 003e 0d72 2f3d
000002d0: 6d1c 32be 1c94 cd3e d000 0e3e 5a0c 213e
000002e0: 5fc9 a93d b158 33bd fc84 2a3e 5b4c 4ebe
000002f0: e555 c53b 59b5 6fbe a9da 39be 29e1 0d3c
00000300: 340d 14bd b43c a83e 2453 c63e e619 f83e

layer_2.bias f4 [14]
0.15563835 -0.18355206 -0.15309623 0.21280105 0.06858515 0.1946146 0.10069584 0.096435554
0.019795794 0.1750368 0.30015394 0.06387696 -0.0117578795 -0.09632275
00000000: a95f 1f3e 12f5 3bbe 42c5 1cbe 85e8 593e
00000010: 5f76 8c3d 0d49 473e 9f39 ce3d 0180 c53d
00000020: ca2a a23c d93c 333e c7ad 993e ecd1 823d
00000030: 1fa4 40bc dd44 c5bd

out_layer.weight f4 [10, 14]
-0.14606121 0.3295918 -0.42887056 0.023317313 -0.27599275 -0.48093063 0.1519459 0.09786402
-0.3347807 -0.043362048 0.37888002 0.39259258 -0.41882414 -0.30135846 -0.021677434 -0.16468811
-0.2327827 -0.18351986 0.08439665 -0.120669186 -0.20574744 0.05215121 -0.179853 -0.23895791
-0.006146609 -0.04028684 0.011982303 -0.21368495 -0.18582237 0.07123059 0.4566651 0.33981696
-0.17154638 0.19443479 -0.34563473 -0.20043802 -0.10301935 -0.12692846 -0.20169243 0.4892511
-0.1033288 -0.32082713 -0.2000384 0.31508595 -0.2980832 -0.042081755 0.45560065 -0.027020387
-0.41503346 -0.16072293 0.2827957 -0.31716317 0.04522379 0.21572113 -0.52615356 0.3045932
-0.16321829 -0.041756585 0.28550124 -0.6821186 -0.27772462 -0.13358735 0.08835473 0.03726667
0.24531886 -0.0537267 -0.13700025 -0.46614227 0.24446355 0.29635578 -0.11715343 0.295438
-0.4164148 0.11388794 -0.069579065 -0.37964725 0.16304895 0.33607218 0.15557781 -0.6182523
0.05441757 -0.07292164 0.28580666 -0.3836681 -0.12131182 -0.22391485 -0.17063186 -0.23643643
0.060656343 -0.26618427 -0.09287729 0.114333004 -0.24530534 -0.028133107 -0.0012987744 -0.2819073
-0.22733276 -0.14474367 -0.1050035 -0.37519854 0.009030964 0.15468825 0.39020637 -0.34563372
0.25174013 0.03783137 -0.47155467 0.2638331 -0.5235108 -0.11857712 -0.117433675 0.09454703
0.106364526 0.034986358 -0.39973584 0.26882473 -0.42804334 -0.35700837 -0.21898401 0.23359506
0.3938273 0.14187285 0.040756635 -0.43710506 -0.12455396 -0.3821183 0.0060884533 -0.28618953
0.13171543 -0.03509208 -0.28255537 0.09641519 0.11595766 -0.15210974 -0.24678017 -0.27891058
-0.03179958 -0.22655907 -0.108378746 -0.2642202
00000000: 1291 15be 42c0 a83e ec94 dbbe f303 bf3c
00000010: ec4e 8dbe 8a3c f6be b597 1b3e ee6c c83d
00000020: 6068 abbe 679c 31bd 90fc c13e e501 c93e
00000030: 1e70 d6be a84b 9abe e094 b1bc 00a4 28be
00000040: 975e 6ebe a1ec 3bbe 27d8 ac3d 6821 f7bd
00000050: 75af 52be 829c 553d 632b 38be 62b1 74be
00000060: 7e69 c9bb d003 25bd 6c51 443c 3ad0 5abe
00000070: 3848 3ebe 58e1 913d 02d0 e93e 7dfc ad3e
00000080: dba9 2fbe ea19 473e 09f7 b0be a03f 4dbe
00000090: cffb d2bd 89f9 01be 7688 4ebe 1f7f fa3e
000000a0: 0d9e d3bd 7443 a4be ded6 4cbe f252 a13e
000000b0: 5c9e 98be eb5d 2cbd 7d44 e93e dc59 ddbc
000000c0: 447f d4be 8d94 24be 99ca 903e 3663 a2be
000000d0: 953c 393d 00e6 5c3e 00b2 06bf a4f3 9b3e
000000e0: b222 27be f408 2bbd 382d 923e 539f 2ebf
000000f0: ec31 8ebe 1fcb 08be 53f3 b43d f0a4 183d
00000100: de34 7b3e 8710 5cbd cb49 0cbe 33aa eebe
00000110: a754 7a3e f2bb 973e 23ee efbd a643 973e
00000120: 5234 d5be 153e e93d 787f 8ebd 2061 c2be
00000130: 4ef6 263e a711 ac3e ca4f 1f3e c845 1ebf
00000140: f5e4 5e3d f157 95bd 4055 923e 2570 c4be
00000150: 5572 f8bd ef49 65be 1eba 2ebe 641c 72be
00000160: c972 783d 4e49 88be 7336 bebd 6c27 ea3d
00000170: 5331 7bbe 6777 e6bc a33b aaba 2756 90be
00000180: ebc9 68be af37 14be 130c d7bd 061a c0be
00000190: 9cf6 133c 9966 1e3e 21c9 c73e e7f6 b0be
000001a0: 15e4 803e 11f5 1a3d 9d6f f1be 2215 873e
000001b0: ce04 06bf 90d8 f2bd 1181 f0bd e0a1 c13d
000001c0: a5d5 d93d db4d 0f3d 2daa ccbe 65a3 893e
000001d0: 7f28 dbbe cdc9 b6be 583d 60be 8b33 6f3e
000001e0: bba3 c93e 1e47 113e 6ef0 263d 3ccc dfbe
000001f0: 2616 ffbd 03a5 c3be a681 c73b 6f87 92be
00000200: 69e0 063e b6bc 0fbd 19ab 90be 5475 c53d
00000210: 367b ed3d a8c2 1bbe f1b3 7cbe 5ecd 8ebe
00000220: 4740 02bd 1aff 67be adf5 ddbd df47 87be

out_layer.bias f4 [10]
-0.16904546 0.19786018 0.02817186 -0.022214187 0.085293554 -0.012085387 0.16560061 0.1755461
-0.11600251 0.0865807
00000000: 411a 2dbe dc9b 4a3e acc8 e63c 87fa b5bc
00000010: 63ae ae3d c901 46bc 3593 293e 5bc2 333e
00000020: b992 edbd 3951 b13d

exp_avg f4 [14, 784]
-0.00028318167 -0.00028318167 -0.00028318167 -0.00028318167 -0.00028318167 -0.00028318167 -0.00028318167 -0.00028318167
-0.00028318167 -0.00028318167 -0.00028318167 -0.00028318167 -0.00028318167 -0.00028318167 -0.00028318167 -0.00028318167
-0.00028318167 -0.00028318167 -0.00028318167 -0.00028318167 -0.00028318167 -0.00028318167 -0.00028318167 -0.00028318167
-0.00028318167 -0.00028318167 -0.00028318167 -0.00028318167 -0.00028318167 -0.00028318167 -0.00028318167 -0.00028318167
-0.00028318167 -0.00028318167 -0.00028318167 -0.0002831826 -0.00028318458 -0.00028318318 -0.00028318173 -0.0002831823
-0.00023801377 -0.00031897533 -0.00037971992 -0.00028318167 -0.0002831675 -0.00029531843 -0.00039798167 -0.00031244467
-0.00028318167 -0.00028318167 -0.00028318167 -0.00028318167 -0.00028318167 -0.00028318167 -0.00028318167 -0.00028318167
-0.00028318167 -0.00028318167 -0.00028318167 -0.00028318167 -0.00028318167 -0.00028318167 -0.00028318167 -0.00028318312
-0.00028318405 -0.00026576692 -0.00025278042 -0.00029903938 -0.00034080044 -0.00028732078 -0.0003151652 -0.0002268812
-0.00021943258 -0.0002535122 -0.00037586916 -0.00029626192 -0.00028160168 -0.00028318164 -0.00028318167 -0.00028318167
-0.00028318167 -0.00028318167 -0.00028318167 -0.00028318167 -0.00028318167 -0.00028318167 -0.00028318167 -0.00028318167
-0.00028318167 -0.00028318056 -0.00028318266 -0.00028319017 -0.00027886985 -0.0002298247 -0.00023090353 -0.00026439043
-0.00032353154 -0.00023479643 -0.00028660588 -0.00024354875 7.799515e-05 -7.721075e-05 -0.00019485127 -0.00022511855
-0.00023719108 -0.00027491868 -0.00028191242 -0.00028318402 -0.00028318167 -0.00028318167 -0.00028318167 -0.00028318167
-0.00028318167 -0.00028318167 -0.00028318167 -0.00028318167 -0.0002832447 -0.00028352818 -0.00028363208 -0.00027391876
-0.00023442476 -0.0002234848 -0.0002715964 -0.00024252478 -0.00017080357 -0.00015450707 -0.00035329701 -0.00028703082
0.00031777448 0.0003752008 0.0006499834 0.00018144587 -0.00018039142 -0.0002016215 -0.00028157502 -0.00028286592
-0.00028324628 -0.00028318405 -0.00028318423 -0.00028318234 -0.00028318167 -0.00028318167 -0.00028318167 -0.00028318164
-0.0002833983 -0.00028468322 -0.0002813403 -0.00028942357 -0.00032508955 -0.00028539315 -0.00019501743 0.0011958583
0.0023125233 0.0018788152 0.0005633843 5.4840702e-06 2.3144912e-05 0.00018469559 0.00039762873 -0.00016098136
-0.00068915356 -0.0002951523 -0.00027875838 -0.00033055394 -0.0002979396 -0.00028318976 -0.0002831857 -0.00028318167
-0.00028318167 -0.00028318167 -0.00028318167 -0.00028318167 -0.0002843933 -0.0002759532 -0.00024107828 -0.00028200567
-0.00050930167 -0.0004080074 0.0012973688 0.002825004 0.0025153484 0.0017036691 0.0012542612 0.0010295514
6.667645e-05 -0.0005934536 -0.0011000702 -0.0011190509 -0.0012719998 -0.000859934 -0.0005841223 -0.0005838176
-0.00039380675 -0.00028688423 -0.00028319773 -0.00028318167 -0.00028318167 -0.00028318167 -0.00028318603 -0.00028318365
-0.0002845616 -0.0002505945 -0.00023270141 -0.00029391688 -0.00058252877 -0.0005053124 0.0022189082 0.0024460095
0.0012522028 0.0006377267 0.0012356 0.0014754353 0.0012435609 0.00025131187 -0.0013499113 -0.00089145347
-0.0009842403 -0.0008573022 -0.0005945441 -0.00058565696 -0.0005672606 -0.00052735745 -0.00028318862 -0.00028318167
-0.00028318167 -0.00028318167 -0.00028319057 -0.00028321618 -0.00028406596 -0.0002914559 -0.00028395889 -0.0005112007
-0.00095585495 0.0007255166 0.002599034 0.002264028 0.00046244147 -1.0430485e-05 0.0009714636 0.0016028074
0.0018800468 0.0014590856 0.00045028856 -3.6128382e-05 -0.0005162301 -0.00044054093 -0.00039571835 -0.0003536051
-0.00058313436 -0.0006620419 -0.00028318228 -0.00028318167 -0.00028318167 -0.00028318167 -0.0002831874 -0.00028320958
00000000: 0078 94b9 0078 94b9 0078 94b9 0078 94b9
00000010: 0078 94b9 0078 94b9 0078 94b9 0078 94b9
00000020: 0078 94b9 0078 94b9 0078 94b9 0078 94b9
00000030: 0078 94b9 0078 94b9 0078 94b9 0078 94b9
00000040: 0078 94b9 0078 94b9 0078 94b9 0078 94b9
00000050: 0078 94b9 0078 94b9 0078 94b9 0078 94b9
00000060: 0078 94b9 0078 94b9 0078 94b9 0078 94b9
00000070: 0078 94b9 0078 94b9 0078 94b9 0078 94b9
00000080: 0078 94b9 0078 94b9 0078 94b9 2078 94b9
00000090: 6478 94b9 3478 94b9 0278 94b9 1678 94b9
000000a0: 5693 79b9 253c a7b9 2515 c7b9 0078 94b9
000000b0: 1976 94b9 f8d4 9ab9 32a8 d0b9 9dcf a3b9
000000c0: 0078 94b9 0078 94b9 0078 94b9 0078 94b9
000000d0: 0078 94b9 0078 94b9 0078 94b9 0078 94b9
000000e0: 0078 94b9 0078 94b9 0078 94b9 0078 94b9
000000f0: 0078 94b9 0078 94b9 0078 94b9 3278 94b9
00000100: 5278 94b9 a256 8bb9 9d87 84b9 63c8 9cb9
00000110: 76ad b2b9 8ba3 96b9 c23c a5b9 f5e6 6db9
00000120: 7c17 66b9 d5e9 84b9 4e10 c5b9 9a53 9bb9
00000130: f0a3 93b9 ff77 94b9 0078 94b9 0078 94b9
00000140: 0078 94b9 0078 94b9 0078 94b9 0078 94b9
00000150: 0078 94b9 0078 94b9 0078 94b9 0078 94b9
00000160: 0078 94b9 da77 94b9 2278 94b9 2479 94b9
00000170: 4735 92b9 19fd 70b9 b21e 72b9 e29d 8ab9
00000180: ab9f a9b9 b033 76b9 9743 96b9 1f61 7fb9
00000190: 5491 a338 35ec a1b8 fd50 4cb9 cd0d 6cb9
000001a0: 7fb6 78b9 f622 90b9 a5cd 93b9 5178 94b9
000001b0: 0078 94b9 0078 94b9 0078 94b9 0078 94b9
000001c0: 0078 94b9 0078 94b9 0078 94b9 0078 94b9
000001d0: 7680 94b9 82a6 94b9 74b4 94b9 c19c 8fb9
000001e0: ebcf 75b9 3f57 6ab9 0d65 8eb9 404e 7eb9
000001f0: bc19 33b9 2d03 22b9 b93a b9b9 a07c 96b9
00000200: f89a a639 99b6 c439 a663 2a3a 8142 3e39
00000210: 7427 3db9 5c6a 53b9 5ca0 93b9 9f4d 94b9
00000220: ac80 94b9 5278 94b9 5878 94b9 1778 94b9
00000230: 0078 94b9 0078 94b9 0078 94b9 ff77 94b9
00000240: 1395 94b9 8941 95b9 db80 93b9 c6bd 97b9
00000250: c870 aab9 d2a0 95b9 987d 4cb9 59be 9c3a
00000260: b48d 173b 9442 f63a 15b0 133a ce03 b836
00000270: 5227 c237 d8aa 4139 d378 d039 1bcd 28b9
00000280: 50a8 34ba acbe 9ab9 5126 92b9 334e adb9
00000290: c734 9cb9 1679 94b9 8b78 94b9 0078 94b9
000002a0: 0078 94b9 0078 94b9 0078 94b9 0078 94b9
000002b0: 9f1a 95b9 d0ad 90b9 f5c9 7cb9 29da 93b9
000002c0: a882 05ba d4e9 d5b9 790c aa3a b423 393b
000002d0: 8bd8 243b a64d df3a 0666 a43a 03f2 863a
000002e0: a6d4 8b38 ff91 1bba 3b30 90ba 1ead 92ba
000002f0: 3bb9 a6ba 326d 61ba c91f 19ba 560b 19ba
00000300: d977 ceb9 f368 96b9 287a 94b9 0078 94b9
00000310: 0078 94b9 0078 94b9 9678 94b9 4478 94b9
00000320: 3631 95b9 3962 83b9 4f01 74b9 db18 9ab9
00000330: d8b4 18ba f176 04ba 1a6b 113b 3b4d 203b
00000340: f420 a43a 1d2d 273a dbf3 a13a 6563 c13a
00000350: fbfe a23a 82c2 8339 82ef b0ba 6eb0 69ba
00000360: a001 81ba 94bc 60ba 2edb 1bba c686 19ba
00000370: 37b4 14ba 5c3e 0aba ef78 94b9 0078 94b9
00000380: 0078 94b9 0078 94b9 3279 94b9 a27c 94b9
00000390: b0ee 94b9 8cce 98b9 51e0 94b9 1902 06ba
000003a0: 5792 7aba 9830 3e3a 8e54 2a3b 1660 143b
000003b0: d873 f239 98fe 2eb7 d2a9 7e3a 4b15 d23a
000003c0: e76b f63a ca3e bf3a b514 ec39 8e88 17b8
000003d0: 9e53 07ba 67f8 e6b9 6b78 cfb9 1364 b9b9
000003e0: 7cdd 18ba e18c 2dba 1578 94b9 0078 94b9
000003f0: 0078 94b9 0078 94b9 c578 94b9 bf7b 94b9

exp_avg_sq f4 [14, 784]
2.2329198e-06 2.2329198e-06 2.2329198e-06 2.2329198e-06 2.2329198e-06 2.2329198e-06 2.2329198e-06 2.2329198e-06
2.2329198e-06 2.2329198e-06 2.2329198e-06 2.2329198e-06 2.232917e-06 2.2329134e-06 2.2329198e-06 2.2329198e-06
2.2329198e-06 2.2329198e-06 2.2329198e-06 2.2329198e-06 2.2329198e-06 2.2329198e-06 2.2329198e-06 2.2329198e-06
2.2329198e-06 2.2329198e-06 2.2329198e-06 2.2329198e-06 2.2329198e-06 2.2329198e-06 2.2329198e-06 2.2329198e-06
2.2329298e-06 2.2329489e-06 2.2329373e-06 2.2332547e-06 2.2359984e-06 2.2361885e-06 2.2352115e-06 2.2348936e-06
2.2300944e-06 2.23683e-06 2.2327752e-06 2.2345966e-06 2.2218808e-06 2.2238312e-06 2.2326667e-06 2.2330953e-06
2.232948e-06 2.2326817e-06 2.232967e-06 2.2332463e-06 2.2329198e-06 2.2329198e-06 2.2329198e-06 2.2329198e-06
2.2329198e-06 2.2329198e-06 2.2329198e-06 2.2326617e-06 2.2329195e-06 2.232927e-06 2.233977e-06 2.2383429e-06
2.2525678e-06 2.2556344e-06 2.2552763e-06 2.2670188e-06 2.3023488e-06 2.3765779e-06 2.3269774e-06 2.28912e-06
2.352001e-06 2.281872e-06 2.2953498e-06 2.2330937e-06 2.244272e-06 2.242676e-06 2.236986e-06 2.2327445e-06
2.2323773e-06 2.2325949e-06 2.2329198e-06 2.2329198e-06 2.2329198e-06 2.2329198e-06 2.2329355e-06 2.2325382e-06
2.2318955e-06 2.2333184e-06 2.2406464e-06 2.2547565e-06 2.2835563e-06 2.3187833e-06 2.3880616e-06 2.4899864e-06
2.6341813e-06 2.9663272e-06 3.7152327e-06 3.881113e-06 3.632026e-06 3.392631e-06 2.9230328e-06 2.9905764e-06
2.865239e-06 2.7605463e-06 2.5431857e-06 2.5062352e-06 2.2723543e-06 2.232754e-06 2.2329514e-06 2.2329198e-06
2.2329198e-06 2.2329198e-06 2.2324364e-06 2.2341476e-06 2.2387744e-06 2.250961e-06 2.323735e-06 2.531105e-06
3.0431222e-06 3.5111836e-06 4.331867e-06 5.500797e-06 6.49923e-06 7.913467e-06 1.0016667e-05 1.1158138e-05
9.858493e-06 9.132202e-06 7.638176e-06 6.0088055e-06 4.9001433e-06 4.4154835e-06 3.429832e-06 2.687551e-06
2.3133787e-06 2.2407535e-06 2.2874988e-06 2.2330455e-06 2.2329198e-06 2.2329198e-06 2.2322904e-06 2.2409988e-06
2.2615002e-06 2.3063435e-06 2.6227056e-06 3.8418852e-06 5.159739e-06 7.4769823e-06 9.6837475e-06 1.3477955e-05
1.6418655e-05 1.9071642e-05 2.1725871e-05 2.3787781e-05 2.2366614e-05 1.943236e-05 1.5696825e-05 1.1669318e-05
9.7553875e-06 7.319263e-06 4.9276764e-06 3.1393677e-06 2.5014865e-06 2.3216282e-06 2.2378795e-06 2.233676e-06
2.2329198e-06 2.2329198e-06 2.231196e-06 2.243208e-06 2.3950688e-06 2.6684556e-06 3.8383337e-06 6.2295994e-06
8.443322e-06 1.3876502e-05 1.8209137e-05 2.1465637e-05 2.6383324e-05 3.144237e-05 3.3408054e-05 3.3829627e-05
3.3410677e-05 3.1048585e-05 2.5276026e-05 1.8939834e-05 1.5236639e-05 1.1257032e-05 7.831938e-06 4.66496e-06
3.1455418e-06 2.5957218e-06 2.4092953e-06 2.2796899e-06 2.2329198e-06 2.2323218e-06 2.2621152e-06 2.3661642e-06
2.5495287e-06 3.142603e-06 5.257448e-06 8.28586e-06 1.2301413e-05 1.8359904e-05 2.3209112e-05 2.7248532e-05
3.1937336e-05 3.712657e-05 4.0111616e-05 3.9288247e-05 3.9523835e-05 3.705873e-05 3.1931297e-05 2.522865e-05
2.0168874e-05 1.5643536e-05 1.1044412e-05 7.0609594e-06 4.629496e-06 3.2787773e-06 2.3557752e-06 2.2336465e-06
2.2329182e-06 2.235011e-06 2.286464e-06 2.565425e-06 3.0576757e-06 3.6880695e-06 6.588685e-06 1.0221371e-05
1.5047074e-05 2.079421e-05 2.561815e-05 2.950319e-05 3.4695386e-05 3.7056652e-05 3.6544585e-05 3.6117162e-05
3.6520076e-05 3.468126e-05 3.170831e-05 2.6394782e-05 2.2458786e-05 1.692658e-05 1.27130825e-05 7.940953e-06
4.801704e-06 3.0884037e-06 2.485973e-06 2.241323e-06 2.2333834e-06 2.2327763e-06 2.2549289e-06 2.6694322e-06
00000000: 45d9 1536 45d9 1536 45d9 1536 45d9 1536
00000010: 45d9 1536 45d9 1536 45d9 1536 45d9 1536
00000020: 45d9 1536 45d9 1536 45d9 1536 45d9 1536
00000030: 39d9 1536 29d9 1536 45d9 1536 45d9 1536
00000040: 45d9 1536 45d9 1536 45d9 1536 45d9 1536
00000050: 45d9 1536 45d9 1536 45d9 1536 45d9 1536
00000060: 45d9 1536 45d9 1536 45d9 1536 45d9 1536
00000070: 45d9 1536 45d9 1536 45d9 1536 45d9 1536
00000080: 71d9 1536 c5d9 1536 92d9 1536 06df 1536
00000090: 290e 1636 6d11 1636 a400 1636 2efb 1536
000000a0: bba8 1536 721c 1636 c9d6 1536 14f6 1536
000000b0: 9f1b 1536 213d 1536 ecd4 1536 49dc 1536
000000c0: c1d9 1536 2ed5 1536 15da 1536 e1de 1536
000000d0: 45d9 1536 45d9 1536 45d9 1536 45d9 1536
000000e0: 45d9 1536 45d9 1536 45d9 1536 d6d4 1536
000000f0: 44d9 1536 65d9 1536 6feb 1536 7036 1636
00000100: d22a 1736 815f 1736 5a59 1736 1623 1836
00000110: 0d82 1a36 4c7d 1f36 2b29 1c36 c89e 1936
00000120: 12d7 1d36 4322 1936 cf09 1a36 42dc 1536
00000130: 4d9c 1636 e180 1636 201f 1636 42d6 1536
00000140: f3cf 1536 b0d3 1536 45d9 1536 45d9 1536
00000150: 45d9 1536 45d9 1536 8ad9 1536 b7d2 1536
00000160: acc7 1536 1ee0 1536 035e 1636 6c50 1736
00000170: 333f 1936 659c 1b36 9642 2036 a419 2736
00000180: e4c6 3036 1d11 4736 3653 7936 823a 8236
00000190: bbbd 7336 f5ac 6336 5229 4436 b6b1 4836
000001a0: 6e48 4036 d341 3936 99ab 2a36 cb30 2836
000001b0: c07e 1836 6cd6 1536 d0d9 1536 45d9 1536
000001c0: 45d9 1536 45d9 1536 f7d0 1536 5dee 1536
000001d0: da3d 1636 370f 1736 77f1 1b36 0edc 2936
000001e0: 7138 4c36 ada1 6b36 745a 9136 7d93 b836
000001f0: f613 da36 15c4 0437 420d 2837 d633 3b37
00000200: e865 2537 8236 1937 b725 0037 3f9f c936
00000210: e96b a436 b728 9436 112c 6636 c65b 3436
00000220: 8b3f 1b36 da5f 1636 ee82 1936 6edb 1536
00000230: 45d9 1536 45d9 1536 75ce 1536 1164 1636
00000240: 47c4 1736 aec6 1a36 bd01 3036 8be9 8036
00000250: d221 ad36 cae2 fa36 6177 2237 601f 6237
00000260: cbba 8937 0afc 9f37 f43f b637 df8b c737
00000270: f09f bb37 ad02 a337 adac 8337 57c7 4337
00000280: 12ab 2337 fe97 f536 6b58 a536 edad 5236
00000290: 36df 2736 45cd 1b36 7a2e 1636 43e6 1536
000002a0: 45d9 1536 45d9 1536 a8bb 1536 058a 1636
000002b0: f8ba 2036 b813 3336 09cb 8036 da07 d136
000002c0: cba7 0d37 1fcf 6837 d3bf 9837 1b11 b437
000002d0: c251 dd37 fde0 0338 a01f 0c38 49e4 0d38
000002e0: 7122 0c38 2a3a 0238 da07 d437 fce0 9e37
000002f0: dea0 7f37 96dc 3c37 eb65 0337 b487 9c36
00000300: ff17 5336 2932 2e36 61af 2136 c6fc 1836
00000310: 45d9 1536 ffce 1536 d8ce 1736 64ca 1e36
00000320: 9218 2b36 82e5 5236 2269 b036 7f03 0b37
00000330: 2b62 4e37 9803 9a37 30b1 c237 c793 e437
00000340: 74f4 0538 5ab8 1b38 853d 2838 6fc9 2438
00000350: 65c6 2538 826f 1b38 f8ed 0538 1da2 d337
00000360: 5430 a937 3d3a 8337 634b 3937 2eed ec36
00000370: 1157 9b36 f708 5c36 e917 1e36 c1e5 1536
00000380: 3ed9 1536 32fd 1536 2771 1936 aa29 2c36
00000390: 7832 4d36 8d80 7736 6014 dd36 747c 2b37
000003a0: b172 7c37 3a6f ae37 8fe6 d637 9e7d f737
000003b0: e385 1138 476d 1b38 7347 1938 827c 1738
000003c0: 222d 1938 b876 1138 8afe 0438 5d6a dd37
000003d0: e065 bc37 8efd 8d37 464a 5537 223a 0537
000003e0: 531e a136 5f42 4f36 b1d4 2636 a369 1636
000003f0: 3ce1 1536 ced6 1536 6253 1736 7f24 3336

exp_avg f4 [14]
0.00066754606 0.00017023437 -0.00065354886 -0.00032964046 6.2834275e-05 4.5650504e-05 -0.00031027576 6e-45
-8.0092905e-05 -0.0010303612 -3.0130954e-05 -0.00022067207 0.00056084275 0.00043407653
00000000: 42fe 2e3a f180 3239 ec52 2bba 98d3 acb9
00000010: e5c5 8338 db78 3f38 82ac a2b9 0400 0000
00000020: 8df7 a7b8 2f0d 87ba bbc1 fcb7 3564 67b9
00000030: 8505 133a c494 e339

exp_avg_sq f4 [14]
1.2408062e-05 7.413016e-06 2.4749475e-06 1.4751515e-05 2.179884e-05 8.6206755e-06 8.351893e-06 4.1719093e-11
2.6754185e-05 1.5025357e-05 1.0685484e-05 1.1613512e-05 1.5409241e-05 1.5209171e-05
00000000: 382c 5037 53bd f836 4617 2636 467d 7737
00000010: a7dc b637 85a1 1037 1b1f 0c37 867b 372e
00000020: 2d6e e037 6b15 7c37 ce45 3337 a7d7 4237
00000030: 1843 8137 e42a 7f37

exp_avg f4 [14, 14]
-6e-45 6e-45 -6e-45 -6e-45 -6e-45 -6e-45 -6e-45 0.0
-6e-45 6e-45 -6e-45 -6e-45 0.0 -6e-45 -0.0030974722 -0.0037494176
-0.0038475844 0.00040568397 -0.00036150703 0.0009365297 -0.0030762793 6e-45 -0.0032082673 -0.0063363616
-0.0019672478 -0.0014509017 -0.00011567614 -0.0024325445 -0.00072633056 0.003101472 0.0056441217 0.0036428105
0.0015346106 0.0003461451 0.004207804 0.0 0.0028766755 0.007937733 -0.000892894 0.00060207606
0.00019402591 0.0015543251 0.0037338845 -0.0015299299 -0.0014264003 -0.0031619798 0.0033802667 -0.0007645048
0.0016779723 -6e-45 -0.0010168223 -0.0065612122 0.003292859 -0.0026479845 0.001139666 0.0013890684
-0.0071118632 -0.0043174354 -0.005071921 -0.0045718397 -0.0014652649 -0.00011546366 0.0013402305 6e-45
-0.005166666 -0.009702969 -0.0007603935 -0.006415698 -0.00064673927 -0.0021354766 -0.010924748 -0.008272644
0.0006012417 -0.0077997465 0.00024791702 -0.0038754486 -0.002287673 -6e-45 -0.0076883375 -0.0043190983
-0.0042436626 -0.008609391 -0.0007993198 -0.00017214629 -0.0023091857 -0.0033960673 -0.0049620387 -0.00302867
-0.0017365182 -0.001684845 -0.004845834 6e-45 -0.00689322 -0.002217797 0.00084990705 0.0025704887
-0.0046579745 -0.0013739056 -0.0003223149 0.00077312475 -0.005024203 -0.00066867046 -0.0006329988 -0.00013260067
0.0005247571 6e-45 -0.0012772339 -7.868255e-05 0.00094170176 0.004650919 -0.00011183449 -0.00044009346
-0.011566244 -0.001802173 -0.0028670284 -0.011344367 -0.0019201548 -0.0068796 0.0035917815 6e-45
-0.0020691527 0.0012287421 -0.003530683 -0.0015133091 0.0032998407 -0.0001118893 0.021610064 0.013748172
0.015674654 0.014066299 0.0019744702 0.009368892 0.010786227 6e-45 0.017314594 0.018523376
0.012646533 0.0051571014 0.0012256308 0.0059355358 1.04007295e-05 -0.005685114 0.0013395905 0.002797179
-0.0004260298 0.0035397746 -0.008618887 6e-45 -0.0020007223 -0.002880233 -0.0030490241 -0.003021207
-0.0012512874 -0.0016730066 0.006598244 0.00015361501 0.003911772 0.012330215 0.0030279597 0.005186272
-0.0006757815 -6e-45 0.001780157 -0.0036683544 -0.00078087626 -0.00042853894 -0.00082937104 -0.00019493635
-0.014830765 -0.006503074 -0.0109200915 -0.008474923 -0.0025594158 -0.0040191603 -0.0007946485 -6e-45
-0.012844584 -0.0029146536 -0.002653625 0.0028299803 -0.0036952507 -0.0020336106 -0.0077067115 -0.0022261238
0.0015587151 -0.007914157 -0.0029217405 -0.0056679174 0.00095721334 6e-45 -0.0025676053 0.00015962536
-0.0014591239 -0.0051570847 -0.0007728473 -0.00038115086
00000000: 0400 0080 0400 0000 0400 0080 0400 0080
00000010: 0400 0080 0400 0080 0400 0080 0000 0000
00000020: 0400 0080 0400 0000 0400 0080 0400 0080
00000030: 0000 0000 0400 0080 f6fe 4abb cab8 75bb
00000040: c127 7cbb fbb1 d439 a788 bdb9 7281 753a
00000050: 679b 49bb 0400 0000 cb41 52bb 41a1 cfbb
00000060: f1ec 00bb 2f2c beba 2897 f2b8 536b 1fbb
00000070: 3867 3eba 1142 4b3b 53f2 b83b 38bc 6e3b
00000080: fd24 c93a cf7a b539 9ee1 893b 0000 0000
00000090: 9b86 3c3b 440d 023c 1a11 6aba a4d4 1d3a
000000a0: 6f73 4b39 7fba cb3a 30b4 743b ee87 c8ba
000000b0: 0df6 baba 3839 4fbb 7787 5d3b 0c69 48ba
000000c0: 68ef db3a 0400 0080 e546 85ba 70ff d6bb
000000d0: 02cd 573b cf89 2dbb d860 953a 6711 b63a
000000e0: a20a e9bb 4679 8dbb 5b32 a6bb 5fcf 95bb
000000f0: 220e c0ba 1525 f2b8 acaa af3a 0400 0000
00000100: 234d a9bb 34f9 1ebc 2555 47ba c73a d2bb
00000110: f089 29ba 5af3 0bbb b7fd 32bc fc89 07bc
00000120: a69c 1d3a 0495 ffbb dcfa 8139 3dfb 7dbb
00000130: c9ec 15bb 0400 0080 73ee fbbb 3987 8dbb
00000140: 6c0e 8bbb 670e 0dbc 7289 51ba 2b82 34b9
00000150: b555 17bb 8e90 5ebb 9998 a2bb a77c 46bb
00000160: e29b e3ba 04d6 dcba cdc9 9ebb 0400 0000
00000170: 85e0 e1bb 7658 11bb 4ccc 5e3a a575 283b
00000180: eca1 98bb 9f14 b4ba 60fc a8b9 86ab 4a3a
00000190: 12a2 a4bb b749 2fba d5ef 25ba b90a 0bb9
000001a0: da8f 093a 0400 0000 dc68 a7ba 5f02 a5b8
000001b0: 89dc 763a bd66 983b af88 eab8 58bc e6b9
000001c0: 5880 3dbc e436 ecba c1e4 3bbb b9dd 39bc
000001d0: b4ad fbba 456e e1bb 1864 6b3b 0400 0000
000001e0: 9f9a 07bb be0d a13a 0863 67bb 3a5a c6ba
000001f0: 2442 583b 1ca6 eab8 9707 b13c 0340 613c
00000200: 2268 803c 5676 663c 1d66 013b fb7f 193c
00000210: b7b8 303c 0400 0000 56d7 8d3c 56be 973c
00000220: 6733 4f3c e7fc a83b 58a5 a03a e27e c23b
00000230: cb7e 2e37 314a babb 3395 af3a e050 373b
00000240: c05c dfb9 90fb 673b 3b36 0dbc 0400 0000
00000250: 8d1e 03bb 4bc2 3cbb 23d2 47bb 71ff 45bb
00000260: 3d02 a4ba c948 dbba 1536 d83b b713 2139
00000270: 522e 803b ac04 4a3c bc70 463b 9af1 a93b
00000280: ee26 31ba 0400 0080 2854 e93a c668 70bb
00000290: b8b3 4cba 86ad e0b9 266a 59ba d467 4cb9
000002a0: bdfc 72bc bd17 d5bb 2fea 32bc 67da 0abc
000002b0: dfbb 27bb 29b3 83bb f54f 50ba 0400 0080
000002c0: 1772 52bc c603 3fbb 71e8 2dbb 3177 393b
000002d0: 052c 72bb 5346 05bb 9588 fcbb 29e4 11bb
000002e0: cd4d cc3a 61aa 01bc ac7a 3fbb f0b9 b9bb
000002f0: 80ed 7a3a 0400 0000 4545 28bb 1b61 2739
00000300: 1340 bfba c3fc a8bb e898 4aba 34d5 c7b9

exp_avg_sq f4 [14, 14]
2.1768745e-13 3.0922266e-12 6.840877e-13 2.674569e-12 2.0517232e-15 9.246289e-13 9.004454e-15 0.0
6.209812e-13 1.546484e-11 3.12476e-13 5.8496506e-12 0.0 3.3850104e-13 0.0015564353 0.0007386619
8.734728e-05 0.001139798 5.572469e-05 0.00051985687 0.0004325711 2.9476232e-13 0.00066892133 0.00044212068
0.0007146082 0.0006921288 0.00020563068 2.487048e-05 0.0033262528 0.0018074097 0.00011444681 0.0027626213
0.0006002054 0.0008472198 0.0012534306 0.0 0.0019950152 0.0006880423 0.0007575642 0.0008715332
0.00042911066 0.0001325953 0.0024026774 0.0035471418 0.00012002139 0.0017930864 0.00030870095 0.0006544636
0.0021360833 1.5917828e-10 0.002802458 0.0009709363 0.00065009494 0.0017643975 0.00045589104 0.00041286554
0.006474744 0.0030364445 0.00024426385 0.0061793197 0.0003319248 0.0022673793 0.0011799025 1.650579e-11
0.0026522726 0.0021043718 0.0017462161 0.0035892702 0.0007564614 8.7117834e-05 0.0023659314 0.0013511387
0.00017932866 0.0021614796 0.00029553424 0.00079882983 0.00086693896 5.240057e-12 0.0014693484 0.00073647394
0.000606892 0.0010094116 0.00029848184 5.09649e-05 0.0031339598 0.0016957099 0.00029744918 0.0030630536
0.00024018713 0.0016047372 0.0009988255 8.1341635e-12 0.0017319502 0.0016262003 0.0011922701 0.0018542447
0.000462832 6.313079e-05 0.0018728218 0.00104898 0.0002190023 0.0023905071 0.00010852514 0.0011525847
0.0006020893 7.621339e-11 0.0011066924 0.0011159854 0.0006875105 0.0013308275 0.00017814581 2.4493098e-05
0.003245956 0.0022327676 0.00016830293 0.0024047052 0.00020889782 0.0012230091 0.001407162 6.7247125e-11
0.0022133617 0.00070166076 0.0013290495 0.0012800451 0.00044463415 0.00010742774 0.003231704 0.0034182582
0.0004509237 0.0041615414 0.0001382088 0.0026543292 0.0018776044 2.0006349e-11 0.004082215 0.0018364917
0.0017548694 0.0020874985 0.00039270407 0.00010696522 0.0020897698 0.0011592886 0.000101531594 0.0012097481
0.00013913019 0.00065252156 0.0011501071 3.8799346e-12 0.00087040407 0.00028398 0.0015159766 0.00060582336
0.00022517722 5.297021e-05 0.004002792 0.0021756247 0.0002562973 0.004397156 0.00053201086 0.0021340235
0.0017198662 3.2185112e-11 0.0029878863 0.0009961353 0.0012875628 0.0013896138 0.00043085913 0.00012285337
0.0029515103 0.002387673 0.0006180776 0.0045144674 0.00010467152 0.0028994386 0.0020597277 6.366857e-11
0.0022179605 0.0027854904 0.00198057 0.0027539723 0.0004313622 9.503707e-05 0.005047093 0.0028538296
0.0003614063 0.0053779203 0.00035720036 0.0020821914 0.0014553699 1.5097747e-10 0.0024063974 0.0024069631
0.0013806241 0.0032348365 0.0006295006 0.00016111476
00000000: 2318 752a 9a98 592c b78d 402b c034 3c2c
00000010: 9dd7 1327 4421 822b b735 2228 0000 0000
00000020: 69ca 2e2b b907 882d 8ae8 af2a f8d0 cd2c
00000030: 0000 0000 248f be2a 4d01 cc3a c3a2 413a
00000040: 372e b738 4665 953a eeb9 6938 0147 083a
00000050: b6ca e239 baef a52a 8d5a 2f3a 6fcc e739
00000060: 8b54 3b3a fa6f 353a 919e 5739 f3a0 d037
00000070: 43fd 593b 9be6 ec3a 2a03 f038 180d 353b
00000080: 1a57 1d3a f517 5e3a 274a a43a 0000 0000
00000090: cdbe 023b bd5d 343a 4697 463a 9a77 643a
000000a0: 42fa e039 4809 0b39 3d76 1d3b 2a77 683b
000000b0: feb3 fb38 ff05 eb3a 24d9 a139 4f90 2b3a
000000c0: 88fd 0b3b b404 2f2f 71a9 373b 6f86 7e3a
000000d0: 226b 2a3a 5b43 e73a a904 ef39 e075 d839
000000e0: 172a d43b 16ff 463b 8a10 8039 e47b ca3b
000000f0: 3106 ae39 5098 143b f5a6 9a3a bc2f 912d
00000100: c0d1 2d3b 80e9 093b 4ae1 e43a f639 6b3b
00000110: 444d 463a 08b3 b638 be0d 1b3b b118 b13a
00000120: 2c0a 3c39 9ca7 0d3b eff1 9a39 9068 513a
00000130: 4a43 633a 3d5e b82c 2797 c03a ee0f 413a
00000140: d517 1f3a 3c4e 843a 8e7d 9c39 25c3 5538
00000150: 1f63 4d3b 9542 de3a f4f2 9b39 83bd 483b
00000160: beda 7b39 0c56 d23a 06eb 823a 0419 0f2d
00000170: 9b02 e33a 3a26 d53a f245 9c3a 210a f33a
00000180: 42a8 f239 1665 8438 7979 f53a ee7d 893a
00000190: fba3 6539 0eaa 1c3b fe97 e338 5312 973a
000001a0: 87d5 1d3a 5398 a72e 6f0e 913a 4246 923a
000001b0: 0c3a 343a 296f ae3a a7cc 3a39 8776 cd37
000001c0: 1bba 543b a053 123b 797a 3039 4298 1d3b
000001d0: 950b 5b39 604d a03a 8670 b83a c4e0 932e
000001e0: 0c0e 113b a8ef 373a 8033 ae3a 30c7 a73a
000001f0: c91d e939 d44a e138 ffca 533b db04 603b
00000200: f469 ec39 8a5d 883b 24ec 1039 41f4 2d3b
00000210: f319 f63a 4bfa af2d 1ac4 853b 70b6 f03a
00000220: a503 e63a 6ace 083b d9e3 cd39 8452 e038
00000230: 85f4 083b 45f3 973a 5ced d438 6990 9e3a
00000240: 7ae3 1139 fb0d 2b3a 31bf 963a 5883 882c
00000250: d42b 643a 27e3 9439 bcb3 c63a 1ed0 1e3a
00000260: 8d1d 6c39 542c 5e38 da29 833b ed94 0e3b
00000270: a45f 8639 0516 903b a576 0b3a f9da 0b3b
00000280: 226d e13a 378d 0d2e 6ad0 433b c190 823a
00000290: 70c3 a83a b423 b63a efe4 e139 33d2 0039
000002a0: 206e 413b 817a 1c3b 7c06 223a 19ee 933b
000002b0: 1883 db38 8204 3e3b 7ffc 063b 3802 8c2e
000002c0: 345b 113b c68c 363b 73cc 013b fd7b 343b
000002d0: 7428 e239 a34e c738 1662 a53b 5107 3b3b
000002e0: 227b bd39 4439 b03b 9f46 bb39 6075 083b
000002f0: 1cc2 be3a 6100 262f a6b4 1d3b 24be 1d3b
00000300: 0ff6 b43a 8dff 533b 1205 253a eaf0 2839

exp_avg f4 [14]
-6e-45 -0.00026520394 0.0003833984 -7.153799e-05 -0.0003429044 -0.0005559261 -0.0003184555 -5.966016e-06
-0.0003125838 0.0013779919 -0.0003255648 0.00028029704 -0.0005782475 -0.00024604454
00000000: 0400 0080 120b 8bb9 dd02 c939 aa06 96b8
00000010: d9c7 b3b9 92bb 11ba 60f6 a6b9 b02f c8b6
00000020: 4ae2 a3b9 bc9d b43a 91b0 aab9 d5f4 9239
00000030: 8895 17ba 8aff 80b9

exp_avg_sq f4 [14]
1.9514146e-11 5.469038e-06 1.2782629e-05 1.559522e-05 2.301404e-05 9.978619e-06 1.4153788e-05 8.947571e-06
1.3890167e-05 2.07488e-05 8.1290655e-06 1.7563878e-05 1.9676952e-05 2.1257609e-05
00000000: f3a5 ab2d ae82 b736 f974 5637 7bd2 8237
00000010: 460e c137 d869 2737 0e76 6d37 861d 1637
00000020: d009 6937 b50d ae37 1262 0837 2456 9337
00000030: ef0f a537 5e52 b237

exp_avg f4 [10, 14]
0.0 0.010954341 0.00014713967 0.025793431 0.0035584276 0.002320268 0.00077124627 0.0074922577
0.015357003 0.0044265166 0.010234302 0.009078713 -0.00062967767 0.00070831086 -6e-45 0.0
0.0 -6e-45 -6e-45 -6e-45 -6e-45 -6e-45 -6e-45 -6e-45
-6e-45 -6e-45 -6e-45 -6e-45 0.0 0.00079889194 0.0021711527 0.0075557623
0.0014801126 0.009388673 0.006283297 0.0015526314 0.0037605525 0.0031647817 0.004492234 0.0049820375
0.0052753123 0.0033711751 6e-45 -0.0061852974 -0.00044601902 -0.007725457 -0.0058376817 0.0008844446
-1.7425982e-05 -0.0069757444 -0.009761855 0.0020683121 -0.0036306456 -0.0020988178 -0.00013161502 -0.0015636894
6e-45 0.003693232 -0.0019816912 0.005783045 0.00393744 0.008430911 0.007613039 0.008876994
0.018097289 0.002465038 0.008722755 -0.0026375917 0.011654588 0.0040293024 -6e-45 -0.00486921
-0.00012387779 -0.022041915 0.0007064325 -0.012791118 -0.014981807 -0.012130025 -0.015381592 -0.0060655447
-0.006506505 -0.006864881 -0.012903397 -0.004665899 6e-45 0.0 0.0 6e-45
6e-45 6e-45 6e-45 6e-45 6e-45 6e-45 6e-45 6e-45
6e-45 6e-45 6e-45 0.00057913805 0.0027683994 0.0075835697 0.0054332525 0.004465848
0.008593449 0.006793336 0.005291776 0.0092872605 0.005163683 0.00043519976 0.0059695886 0.004819091
6e-45 -0.0026808667 0.0015591327 0.011615714 0.0046310346 0.012993489 0.0151734315 0.009588905
0.013418606 0.0116009815 0.0028575 -0.00026100624 0.0130382 0.008987507 6e-45 -6e-45
6e-45 6e-45 -6e-45 6e-45 6e-45 6e-45 6e-45 6e-45
6e-45 6e-45 6e-45 6e-45
00000000: 0000 0000 d679 333c 8149 1a39 bf4c d33c
00000010: 8234 693b a30f 183b 762d 4a3a 9d81 f53b
00000020: f09b 7b3c 500c 913b c6ad 273c e2be 143c
00000030: f410 25ba f0ad 393a 0400 0080 0000 0000
00000040: 0000 0000 0400 0080 0400 0080 0400 0080
00000050: 0400 0080 0400 0080 0400 0080 0400 0080
00000060: 0400 0080 0400 0080 0400 0080 0400 0080
00000070: 0000 0000 bb6c 513a e649 0e3b 5496 f73b
00000080: 5600 c23a f3d2 193c 1ee4 cd3b aa81 cb3a
00000090: 9a73 763b 3a68 4f3b 9733 933b 5c40 a33b
000000a0: 87dc ac3b efee 5c3b 0400 0000 09ae cabb
000000b0: a9d7 e9b9 d525 fdbb 064a bfbb 13da 673a
000000c0: 032e 92b7 c994 e4bb 30f0 1fbc 858c 073b
000000d0: 20f0 6dbb 528c 09bb 2302 0ab9 b6f4 ccba
000000e0: 0400 0000 270a 723b 43df 01bb b37f bd3b
000000f0: a405 813b ce21 0a3c cd76 f93b d070 113c
00000100: c440 943c 7a8c 213b e3e9 0e3c 72db 2cbb
00000110: e3f2 3e3c 3d08 843b 0400 0080 e58d 9fbb
00000120: 31e5 01b9 3f91 b4bc e22f 393a d691 51bc
00000130: 4176 75bc 03bd 46bc 1303 7cbc 7ac1 c6bb
00000140: 8534 d5bb ccf2 e0bb c568 53bc 66e4 98bb
00000150: 0400 0000 0000 0000 0000 0000 0400 0000
00000160: 0400 0000 0400 0000 0400 0000 0400 0000
00000170: 0400 0000 0400 0000 0400 0000 0400 0000
00000180: 0400 0000 0400 0000 0400 0000 4cd1 173a
00000190: 096e 353b 987f f83b 6d09 b23b 4056 923b
000001a0: 8acb 0c3c a29a de3b a266 ad3b 9829 183c
000001b0: 1d34 a93b 862b e439 8a9c c33b 77e9 9d3b
000001c0: 0400 0000 7bb1 2fbb d05b cc3a d64f 3e3c
000001d0: efbf 973b a5e2 543c fc99 783c c81a 1d3c
000001e0: b6d9 5b3c 0b12 3e3c e544 3b3b aad7 88b9
000001f0: 2d9e 553c 5640 133c 0400 0000 0400 0080
00000200: 0400 0000 0400 0000 0400 0080 0400 0000
00000210: 0400 0000 0400 0000 0400 0000 0400 0000
00000220: 0400 0000 0400 0000 0400 0000 0400 0000

exp_avg_sq f4 [10, 14]
0.0 0.00065884204 2.3519438e-05 0.0041247075 0.00088455225 0.000331595 0.0026853634 0.0022013509
0.000875425 0.0009267067 0.0042812256 0.0023057626 0.00044255043 6.589875e-05 4.6356217e-11 0.0
0.0 1.845486e-10 9.585772e-10 7.319114e-11 1.0545631e-10 3.921647e-09 5.159037e-09 1.2167244e-11
7.759131e-10 1.5458733e-10 3.4041345e-10 4.561525e-10 0.0 0.0005915544 0.0005532763 0.00774152
0.001029207 0.0020394616 0.00078303483 0.00041111326 0.0022086129 0.0017809541 0.0016363012 0.0030782877
0.0005453079 0.0006632015 1.1809991e-12 0.002582627 0.00019134434 0.011353453 0.004588837 0.0015941571
0.0016181675 0.0032456145 0.0101955235 0.0016645774 0.005524711 0.0030713237 0.00049960864 0.0016052705
2.5828463e-12 2.84727e-05 0.0005008831 0.0008183909 0.000628177 0.0021219435 0.0034269183 0.0016526012
0.0032319766 0.0032668354 0.0015390859 5.9927734e-05 0.0028337669 0.0014132749 2.0391156e-11 0.0024099501
2.903549e-05 0.009293024 0.0031399461 0.0013641664 0.005149265 0.007247042 0.0116169 0.0013134282
0.010725654 0.0024131506 0.0029822187 0.000641401 4.7796917e-13 0.0 0.0 1.8414464e-11
3.310374e-11 1.04433285e-11 5.2538866e-11 4.8052207e-10 5.37821e-10 3.3193146e-11 3.362138e-11 2.2825828e-12
2.292292e-11 1.5330164e-10 1.6276389e-12 4.9898572e-05 0.00038135995 0.0034798025 0.002165137 0.0008045138
0.0026341658 0.0014500769 0.0008834072 0.003031818 0.0007211133 0.000566393 0.0010654342 0.0011533409
1.3390521e-12 0.0012139884 8.222712e-05 0.010641608 0.0008747754 0.0017246205 0.0023462677 0.0040341928
0.012217691 0.0041232132 0.0072654826 0.00070652284 0.0025979164 0.00081189425 4.0680337e-12 2.95456e-13
1.2809203e-09 9.0749447e-10 8.314776e-11 3.3107263e-08 4.9901704e-08 4.908262e-09 4.3137854e-10 7.816651e-09
2.302718e-08 7.878146e-09 2.3205827e-08 6.7648764e-10
00000000: 0000 0000 24b6 2c3a 9c4b c537 8e28 873b
00000010: 4ce1 673a edd9 ad39 ecfc 2f3b 8a44 103b
00000020: c77c 653a 3cee 723a 8649 8c3b 471c 173b
00000030: 1d06 e839 1f33 8a38 76e0 4b2e 0000 0000
00000040: 0000 0000 d0e9 4a2f f0be 8330 f3f2 a02e
00000050: a0e6 e72e 2cbf 8631 5f43 b131 650c 562d
00000060: 0848 5530 77f8 292f ef24 bb2f c2c5 fa2f
00000070: 0000 0000 8b12 1b3a be09 113a 94ac fd3b
00000080: 75e6 863a 7da8 053b 9444 4d3a b08a d739
00000090: 60be 103b e76e e93a 2879 d63a 19bd 493b
000000a0: fef2 0e3a b3da 2d3a fa35 a62b 4b41 293b
000000b0: 9ba3 4839 d503 3a3c f45d 963b 09f3 d03a
000000c0: b118 d43a 60b4 543b 200b 273c f32d da3a
000000d0: a308 b53b 4348 493b 2bf8 023a f167 d23a
000000e0: 6cc0 352c a8d8 ee37 b24d 033a 4989 563a
000000f0: 3fac 243a 4e10 0b3b 2696 603b 189c d83a
00000100: 92cf 533b 6718 563b 27bb c93a ea5a 7b38
00000110: b8b6 393b a33d b93a cd5c b32d 41f0 1d3b
00000120: 3d91 f337 c541 183c 8ec7 4d3b d4cd b23a
00000130: 2abb a83b 9878 ed3b cf54 3e3c 5627 ac3a
00000140: a7ba 2f3c f325 1e3b 5471 433b b123 283a
00000150: 4f89 062b 0000 0000 0000 0000 b0f9 a12d
00000160: 7f97 112e 92b8 372d 8111 672e bc15 0430
00000170: cad5 1330 29fc 112e 4fde 132e 5b9f 202c
00000180: d4a1 c92d 938e 282f df11 e52b 2f4a 5138
00000190: 44f1 c739 660d 643b f9e4 0d3b 02e6 523a
000001a0: f8a1 2c3b 8210 be3a 7494 673a 77b1 463b
000001b0: 1809 3d3a fe79 143a 0aa6 8b3a b32b 973a
000001c0: 7074 bc2b b11e 9f3a 5971 ac38 245a 2e3c
000001d0: 2f51 653a a90c e23a d7c3 193b 4331 843b
000001e0: b62c 483c 051c 873b 4913 ee3b f235 393a
000001f0: ce41 2a3b 4dd5 543a 9721 8f2c b253 a62a
00000200: 600c b030 3f73 7930 07d8 b62e d231 0e33
00000210: 8153 5633 87a5 a831 2227 ed2f ff49 0632
00000220: 4ecd c532 7458 0732 2756 c732 96f3 3930

exp_avg f4 [10]
0.00079644995 -6e-45 0.00062108506 -0.0002924267 0.0008331248 -0.0011031245 6e-45 0.0006918859
0.0010088239 6e-45
00000000: dac8 503a 0400 0080 50d0 223a d950 99b9
00000010: 0f66 5a3a b796 90ba 0400 0000 ad5f 353a
00000020: 833a 843a 0400 0000

exp_avg_sq f4 [10]
1.7835515e-05 2.0883437e-08 2.5690293e-05 4.1979263e-05 2.3607421e-05 5.2987973e-05 2.7851528e-09 2.0817979e-05
4.9444825e-05 3.233358e-09
00000000: 7a9d 9537 2a63 b332 7c81 d737 e412 3038
00000010: 8d08 c637 673f 5e38 ed64 3f31 45a2 ae37
00000020: fa62 4f38 d631 5e31
